checkpoint_dir/CNN_3ways_special1_cross0/ADD_84.pth (torch, 693395 bytes, 4 tensors)

dense1.1.weight f4 [30, 5760]
0	0x3d568b2c	0.05237882
1	0x3c5769f8	0.0131478235
2	0x3c031ab6	0.008001974
3	0x3d51dbaf	0.051234897
4	0x3cd60aea	0.026128251
5	0x3d2146d9	0.039374206
6	0xbcfe3613	-0.031031644
7	0x3cd214e6	0.02564473
8	0xbbf031b3	-0.0073301434
9	0x3d169360	0.03676164
10	0x3be98308	0.007126216
11	0xbc34c67b	-0.01103365
12	0xbbc32d25	-0.0059563094
13	0xba840dc1	-0.00100749
14	0xbbd634bc	-0.006537048
15	0xba2834c1	-0.00064165524
16	0xbcc1b0fa	-0.02364396
17	0xbd3c1cdb	-0.045925956
18	0x3c957e16	0.018248599
19	0x3b8ed210	0.0043585375
20	0xbc59cd1c	-0.013293531
21	0xbb82c73c	-0.0039910357
22	0xbd0079f3	-0.0313663
23	0x3d35aed4	0.044356182
24	0xbbfeefc4	-0.007780047
25	0xbcc993ab	-0.024606546
26	0x3c0ec1fd	0.008713243
27	0x3ccb415c	0.02481144
28	0xbc02785c	-0.007963266
29	0xbcb4b208	-0.022057548
30	0xbcd6bbc5	-0.026212582
31	0xbd0998d9	-0.033593033
32	0xbcb042ff	-0.021516321
33	0xbc764219	-0.015030407
34	0x3c80e1d9	0.015732693
35	0x3caa82f8	0.020814404
36	0x3c538d3f	0.012912094
37	0xbd09cb73	-0.03364129
38	0x3c3c2bda	0.011485064
39	0xbcd05231	-0.025429817
40	0xbd3ff68f	-0.046865996
41	0xbbd837a5	-0.00659843
42	0xbd06841c	-0.032840833
43	0x3ca26990	0.019825727
44	0xbc051f38	-0.008125119
45	0xbc910265	-0.017701337
46	0xba4ff5c7	-0.0007933047
47	0x3d0f2564	0.034947768
48	0x3d20f3f2	0.039295144
49	0xbcd3bc3e	-0.025846597
50	0xbca8962a	-0.020579416
51	0x3dba326d	0.09091649
52	0xbd16a5a0	-0.036779046
53	0xbd173c1b	-0.036922555
54	0x3b016799	0.0019745587
55	0xbc63b756	-0.013898691
56	0x3b0419bd	0.0020156943
57	0x3c217171	0.009853707
58	0x3b95b14c	0.0045682546
59	0xbb208311	-0.0024492184
60	0xbca78d61	-0.020453157
61	0xbc39b877	-0.011335484
62	0x3c084e9d	0.008319524
63	0x3d8ea9d2	0.069659844
64	0xbcd79760	-0.026317298
65	0x3c081062	0.008304687
66	0xbc2f3b82	-0.01069534
67	0x3c12f846	0.008970326
68	0x3d640c21	0.05567563
69	0x3cb0b494	0.021570481
70	0xbc2ea134	-0.010658551
71	0xbb25b325	-0.002528378
72	0x3bcd274b	0.0062607876
73	0x3d84cefa	0.0648479
74	0xbbdf19a7	-0.006808478
75	0xbccb3b6d	-0.02480861
76	0xbc5f1e55	-0.013618072
77	0xbcf1c6a0	-0.029513657
78	0x3d3b0c35	0.04566594
79	0x3bae3670	0.005316548
80	0xbc689e7b	-0.014197941
81	0xbb409709	-0.00293869
82	0x3d0b8837	0.03406545
83	0xba606c3c	-0.000856105
84	0x3d877403	0.06613924
85	0x3c77daff	0.015127896
86	0xbb0326e0	-0.0020012185
87	0x3c4c62a2	0.012474688
88	0x3b83829c	0.0040133726
89	0x3d92c8ef	0.07167231
90	0x3d446436	0.04794713
91	0x3c27adc4	0.0102343
92	0xba977b00	-0.0011557043
93	0x3d3643ad	0.044498134
94	0x3c88b9ac	0.016690098
95	0xbb071bc3	-0.0020615913
96	0x3d25afbf	0.040450808
97	0x3b5e2952	0.003389914
98	0xbcbbced7	-0.022925777
99	0x3d31d7a7	0.043418553
100	0xbd5fa03a	-0.054596163
101	0xbccb1eff	-0.024795054
102	0xbc5a0684	-0.0133072175
103	0xbc5cdb73	-0.013480055
104	0xbd2ed046	-0.042679094
105	0x3c2d86ed	0.010591251
106	0x3d47775f	0.048697826
107	0xbc5b3a3d	-0.013380584
108	0xbcd9b9f1	-0.026577922
109	0x3ce19db4	0.027541019
110	0x3c1cccd5	0.00957032
111	0xbce4fb37	-0.02795182
112	0x3cae6615	0.02128891
113	0x3cfeab07	0.031087412
114	0xba459ccc	-0.0007538318
115	0xbcd60074	-0.026123263
116	0x3cbaad5d	0.022787744
117	0xbb442d88	-0.0029934365
118	0xbb65893b	-0.0035024423
119	0x3bd12c3e	0.006383448
120	0x3b37a005	0.0028018963
121	0x3c2a6e4e	0.010402275
122	0x3d330e40	0.04371476
123	0xbc0a859f	-0.008454709
124	0xbd6aef8d	-0.05735736
125	0xbc869294	-0.016427316
126	0x3bb6fa36	0.0055840267
127	0x3c41d193	0.011829752
128	0xbc849e60	-0.0161888
129	0x3db76863	0.08955457
130	0xbba60aff	-0.005067229
131	0x3d2e5419	0.04256067
132	0x3aa174b9	0.0012318111
133	0xbc3a43d2	-0.011368709
134	0x3bee7dcc	0.0072781797
135	0xbd0f26c6	-0.034949087
136	0x3c44517a	0.011982316
137	0x3bde808e	0.0067902273
138	0x3d2a9b38	0.041651934
139	0x3ccb4ce4	0.024816938
140	0x3d8b92ca	0.06815107
141	0x3bb30054	0.0054626856
142	0xbc2e3bb9	-0.010634356
143	0x3dc214f2	0.09476651
144	0xb65ed9a5	-3.3207264e-06
145	0x3b1213fc	0.0022289744
146	0xbc36b52b	-0.011151592
147	0xbd06e44d	-0.03293257
148	0xbcd269a1	-0.025685133
149	0xbbabb4e4	-0.0052400697
150	0x3bc11925	0.00589289
151	0xbc7018b6	-0.014654329
152	0xbb13ca51	-0.002255101
153	0xbc8203c0	-0.015870929
154	0x3c224195	0.009903331
155	0xbc2cc845	-0.010545795
156	0xbc81d8ec	-0.015850507
157	0xbc805fc3	-0.015670663
158	0x3d177bbe	0.036983244
159	0xbcc3f169	-0.023918824
160	0xbc1eddce	-0.009696437
161	0x3cc410ee	0.023933854
162	0xbc6c4372	-0.014420377
163	0x3c61c919	0.013780856
164	0x3d07f9e7	0.03319731
165	0x3b028cdb	0.0019920382
166	0xbc87617e	-0.01652598
167	0xbbf7e885	-0.0075655603
168	0xbcbbc567	-0.022921277
169	0x3ca0a09b	0.019607833
170	0xbbdd3c5e	-0.006751581
171	0xbc819c21	-0.015821518
172	0x3cbd8ea2	0.023139302
173	0x3ba1d964	0.004939245
174	0x3babae4b	0.005239283
175	0x3ccee8dc	0.02525752
176	0xbd1444a9	-0.036198292
177	0x3cbb7e41	0.022887351
178	0x3ba04cf7	0.0048919874
179	0xbc21f9a9	-0.009886184
180	0xbb90e4cb	-0.0044218055
181	0x3bf5c2af	0.0075000147
182	0xbc1ca420	-0.009560615
183	0xbd855295	-0.06509892
184	0xbca03b95	-0.01955966
185	0xbd843821	-0.06456018
186	0x3c80107e	0.015632864
187	0xbc8e0b39	-0.017339336
188	0xbbd16b98	-0.006391
189	0x3b4daf56	0.0031385026
190	0xbd4ea3e5	-0.05044927
191	0xbc429fe9	-0.011878946
192	0x3cfe1c1d	0.031019265
193	0xbb7b1b18	-0.003831571
194	0xba360810	-0.00069439504
195	0x3d46e2a2	0.048555978
196	0x3be82650	0.0070846453
197	0x3cd74bcf	0.026281266
198	0xba56b8bd	-0.00081909803
199	0x3ca00f34	0.0195385
200	0xbc466264	-0.012108419
201	0x3ba80fc6	0.0051288335
202	0x3d116210	0.03549391
203	0xbcbcc312	-0.023042236
204	0x3d522a1e	0.051309697
205	0xbc8366e2	-0.01604027
206	0xbbfaa87b	-0.007649479
207	0x3d88ee47	0.06686073
208	0x3d9a154e	0.07523595
209	0xbc952761	-0.018207254
210	0x3ce9e923	0.028553551
211	0x3c072e3c	0.008250769
212	0x3c50d931	0.012747095
213	0xbc4b81f5	-0.012421121
214	0xbc2c8aee	-0.01053117
215	0x3c87db0d	0.016583944
216	0xbd74281a	-0.059608556
217	0xbc683265	-0.014172171
218	0xbc752c53	-0.014964181
219	0x3c6271b4	0.013821054
220	0x3d1ebc2c	0.038753673
221	0xbd59ce29	-0.053175125
222	0xbb5be678	-0.0033554118
223	0xbd047834	-0.032341197
224	0xbcaf76d6	-0.02141897
225	0x3d09be6e	0.033628874
226	0x3d0e00a9	0.0346686
227	0xbc4db4d9	-0.0125553245
228	0x3bcf9c74	0.0063357893
229	0x3c29e542	0.010369601
230	0xbcb6e1b9	-0.02232443
231	0xbc1b8b2b	-0.009493629
232	0xbcdeb704	-0.027186878
233	0x3d9a284e	0.07527219
234	0x3ca346ce	0.019931223
235	0x3c052ec4	0.008128826
236	0xbc7d820a	-0.015472898
237	0xbd06a623	-0.032873284
238	0xbcbff482	-0.02343202
239	0x3c54f000	0.012996674
240	0x3ba7b053	0.005117455
241	0x3b8080fe	0.003921627
242	0x3bab77a7	0.0052327695
243	0xbbf7efa0	-0.0075664073
244	0xbcf740e7	-0.030182315
245	0xbc62395a	-0.013807619
246	0xbc6fed39	-0.014643961
247	0x3c972628	0.018450812
248	0xbd22f59b	-0.03978501
249	0x3bd8968a	0.0066097425
250	0xbc1bd7a4	-0.009511862
251	0xbccbd1b4	-0.024880268
252	0x3cf39d49	0.029738085
253	0x3d0519db	0.03249536
254	0x3bfeac4c	0.007772004
255	0xbd827560	-0.06370044

dense1.1.bias f4 [30]
0	0xbc40237a	-0.011727208
1	0xbc864b7c	-0.016393416
2	0xba6fb180	-0.0009143576
3	0xbb5be910	-0.0033555664
4	0xbbc3b7de	-0.0059728464
5	0xbc353c12	-0.011061685
6	0xbb129770	-0.0022368096
7	0xbc7a5fd1	-0.0152816335
8	0xbc221c97	-0.009894512
9	0xbc53645e	-0.012902347
10	0xbc59de48	-0.013297625
11	0xbba49e53	-0.0050237565
12	0xbd0db28d	-0.034594107
13	0xbbb2c8f9	-0.0054560867
14	0xbc650cb5	-0.01398008
15	0xbc838968	-0.016056731
16	0xbc08647f	-0.008324741
17	0xbc095b53	-0.00838359
18	0x3bdd2422	0.006748692
19	0xbc0faa58	-0.00876864
20	0xbadadea0	-0.0016698427
21	0x3c0b3cf1	0.008498416
22	0xbc74c7af	-0.014940186
23	0xbcad2ba3	-0.021138972
24	0xba220c2c	-0.00061816233
25	0xbcb7a165	-0.022415826
26	0xba19a7df	-0.00058615016
27	0xbc7bdc3f	-0.015372335
28	0xbc8613c7	-0.016366852
29	0xbc6466f7	-0.013940564

dense2.2.weight f4 [2, 30]
0	0x3d9d0cf0	0.07668483
1	0xbd12795e	-0.035760276
2	0x3e0cd391	0.13752581
3	0x3e002f91	0.12518145
4	0x3e469f87	0.19396792
5	0x3da471a0	0.08029485
6	0x3d99ba0b	0.07506188
7	0xbcd00441	-0.025392653
8	0x3da5d676	0.08097546
9	0x3dbfec89	0.093712874
10	0xbdb95758	-0.090498626
11	0xbdbacaa5	-0.091206826
12	0xbe69f8e5	-0.22848852
13	0xbcd7a472	-0.02632353
14	0x3d9ce0fa	0.076600984
15	0x3e3e4ba4	0.18583542
16	0x3d74b653	0.05974419
17	0xbdc87d14	-0.09789482
18	0xbcb22ee8	-0.021750882
19	0xbd91d3e5	-0.07120494
20	0xbcb6066e	-0.022219863
21	0x3c2590e4	0.010105345
22	0xbe1250d2	-0.14288643
23	0x3c453857	0.012037358
24	0xbe3716ea	-0.17879835
25	0xbe1a0602	-0.15041354
26	0x3dc02da1	0.09383703
27	0x3d80e283	0.06293204
28	0x3e329ba9	0.17442192
29	0xbdfd1b85	-0.123587646
30	0xbcd31d46	-0.025770795
31	0xbe17ffac	-0.14843625
32	0xbd0980f9	-0.033570264
33	0xbb62d567	-0.003461206
34	0xb9acd99a	-0.00032968522
35	0xbcf8623e	-0.030320283
36	0xbdc1ab24	-0.094564706
37	0xbe179e89	-0.1480657
38	0xbe4508ea	-0.19241682
39	0x3cbbf636	0.022944551
40	0x3da98523	0.08277347
41	0xbe5ae9e7	-0.21378289
42	0x3c6e329c	0.014538433
43	0x3dd1f4ec	0.10251793
44	0x3e5fb384	0.21845824
45	0xbe041b78	-0.12901103
46	0x3e6755d4	0.22591335
47	0x3e29d76a	0.1658608
48	0xbe22f67e	-0.15914342
49	0x3c1ce0ff	0.009575128
50	0xbe2cba76	-0.16868004
51	0xbdec4134	-0.11535874
52	0x3dd5d4f2	0.10441007
53	0x3e318b3d	0.17338271
54	0xbbe85824	-0.0070905853
55	0xbcacd87d	-0.021099323
56	0xbd218948	-0.039437562
57	0x3e23ce8e	0.15996763
58	0xbc3e4246	-0.0116124805
59	0x3d91aeec	0.07113442

dense2.2.bias f4 [2]
0	0xbcc5eb04	-0.024159916
1	0xbe288fee	-0.16461155
