checkpoint_dir/CNN_baseline_new_cross0/ADD_58.pth (torch, 693459 bytes, 4 tensors)

dense1.1.weight f4 [30, 5760]
000000 cf 7f e8 bc 46 9f dd bc 5a b5 06 bd 98 3b 42 bc
       -0.028381256 -0.027053487 -0.032887794 -0.011855029
000010 b8 71 05 3b ab 05 23 3b b8 9b 6f bb 2e cd 4b bb
       0.002036197 0.0024875205 -0.0036561321 -0.0031097638
000020 9c ca ce bc 1b 1d 4e 3d df 28 b9 3c 1b 7c 22 bd
       -0.025243096 0.050320726 0.022602497 -0.039669137
000030 d5 5f 8a bc 11 ad 6a bc 8c ee d1 bb a9 22 62 3b
       -0.0168914 -0.014323489 -0.006406611 0.0034505522
000040 ca 45 d5 3c 42 5a ec 3c 22 1f 74 3c 5d d2 3d bb
       0.026034255 0.028851632 0.014900001 -0.0028964498
000050 ff ab 08 bd 1e e7 b7 3c f1 b4 b5 bc 27 54 1b bd
       -0.033367153 0.022449072 -0.022181006 -0.03792205
000060 b4 2f b6 3d 07 29 43 bb 29 40 8d bc f1 25 56 bc
       0.088958174 -0.0029779093 -0.017242508 -0.013070569
000070 84 d2 34 3d f2 de bf bc 4f 25 e4 bb 07 64 5c bd
       0.044146076 -0.023421738 -0.0069624553 -0.05380633
000080 8f 85 3a bd a7 a7 d7 bc 6b ab 8a 3b 40 5b c3 bc
       -0.045537528 -0.02632506 0.0042318604 -0.023847222
000090 55 4b 1b 3d a4 5f b2 3c 9c c8 85 3b 9b 07 8f 3b
       0.03791364 0.02177412 0.0040827524 0.0043649203
0000a0 1f bf a1 bb 75 32 f3 bc 8b 6e 17 3d 7b b2 fb 3c
       -0.0049361135 -0.029687146 0.036970656 0.030724755
0000b0 0d 7e 01 bc 55 7d c4 bc 35 84 e9 bc c5 5b 60 bc
       -0.007903588 -0.023985544 -0.028505424 -0.013693755
0000c0 0f 62 a6 3a 0f a4 35 3d ad 81 eb 3c 63 00 39 bc
       0.0012694019 0.04434591 0.028748358 -0.011291596
0000d0 6b 5e 07 3c 50 77 55 3c 60 72 30 bd 48 08 d7 3c
       0.008262257 0.013028935 -0.043077826 0.026249066
0000e0 55 dd 59 3d 1b df 03 bc 43 10 90 3b b1 4a 9f bc
       0.053189594 -0.008048798 0.00439647 -0.019444795
0000f0 bd 8d 71 bd 84 78 6f 3c 04 d5 fc 3c c6 0d 7e 3d
       -0.058973063 0.0146161355 0.030863293 0.062024854
000100 8a ba 91 3d f6 50 a0 3b 0e 3b f7 3b d9 d3 0c 3d
       0.07115658 0.004892464 0.0075448817 0.03438172
000110 82 cc 81 b9 c1 fe 96 ba e2 b3 d5 bc c8 d8 b8 bb
       -0.00024757168 -0.0011520014 -0.026086751 -0.0056410767
000120 81 c8 11 3c 4c d1 97 bc 8a 77 4f 3d bc a1 b3 3c
       0.0088979015 -0.018532418 0.05065111 0.021927707
000130 c8 13 6f 3c 6f 82 c0 3c 19 79 d0 3b 6c 3e 71 3d
       0.014592119 0.023499696 0.006362092 0.05889742
000140 d9 eb 82 bb dd 84 0f bd dd 6c 89 3c cc 21 31 3c
       -0.0039954004 -0.035038818 0.016775543 0.01081128
000150 8a 2f 6b bc 98 d2 85 3d c5 33 5e bc 6c 8b 9e bc
       -0.014354596 0.06534308 -0.0135621475 -0.01935359
000160 5e 74 28 3d 21 bc ca ba 08 4f 82 3c 13 85 27 bd
       0.0411266 -0.0015467444 0.015906826 -0.040898394
000170 e1 a9 13 bd 67 83 09 3d 39 28 8f bd cc 7c ae 3b
       -0.03605068 0.03357258 -0.06990094 0.0053249355
000180 28 e1 fa bc ec 75 2d 3a 91 53 21 3b b7 7f d7 3b
       -0.030624941 0.0006616998 0.002461646 0.006576504
000190 fe d1 d5 3c 3e 98 ce bb 6c cc e9 bc a4 e0 8b 3d
       0.026101109 -0.00630477 -0.028539859 0.06829956
0001a0 09 8b d3 bc 33 25 59 bc a1 0d 77 bd 71 f4 eb bc
       -0.025823133 -0.013253498 -0.060315732 -0.028803082
0001b0 26 56 5e bd c3 e7 b5 bb 16 0b 95 bc 58 16 41 3c
       -0.054281376 -0.00555131 -0.018193763 0.011785112
0001c0 67 95 5d 3b 2a 56 1a bc b9 ed bb 3c e5 6a 96 bb
       0.0033810975 -0.009419957 0.022940503 -0.0045903795
0001d0 1b 3f 85 b9 a3 6b 19 bd 09 29 46 bb 6a c4 fd bb
       -0.00025414754 -0.037456166 -0.0030236861 -0.0077443616
0001e0 12 31 05 3c 05 e7 21 bd e9 8f 1f 3c f1 64 90 bc
       0.008129375 -0.039526958 0.009738901 -0.017626258
0001f0 34 d0 4c bc d8 1d 5f 3b 3c 27 c4 bc 20 e6 32 bc
       -0.012500811 0.0034044888 -0.02394449 -0.010919124
000200 b2 26 b5 3b 12 c9 cf bc 13 51 40 3c 61 6d 2c 3b
       0.0055282945 -0.025364432 0.01173808 0.0026310312
000210 cf 7e 3f 3d 2c 50 4f bb d4 19 39 3b 0e 25 89 3c
       0.046751793 -0.003163348 0.0028244155 0.016741302
000220 8e cf be 3c 3c 05 ac bc d8 ca 8c bc 27 22 13 3c
       0.02329233 -0.02099859 -0.017186567 0.0089803105
000230 ca a1 9d bc b5 98 59 bb 19 e9 8f bb 2c df c7 3c
       -0.019242186 -0.0033202593 -0.004391801 0.024398409
000240 d4 a2 aa 3c 70 73 76 bc 33 da d8 b9 4a e4 57 bd
       0.020829596 -0.015042171 -0.00041361302 -0.052707948
000250 97 86 75 bc 5a a5 0e bd 89 cb 94 3c 45 9a 57 bc
       -0.014985702 -0.03482566 0.01816346 -0.013159339
000260 2c 79 38 bc c3 1f 71 bd 4a bd 11 bd 84 4d 34 bd
       -0.011259358 -0.05886818 -0.03558091 -0.044019237
000270 e4 a6 b3 3c 5d ea 8e 3c 6e f1 f2 bc 9d f0 a7 bc
       0.021930166 0.017445737 -0.029656138 -0.020500476
000280 79 64 b6 bc ea 02 88 ba 66 e3 84 bb 62 03 19 bd
       -0.022264706 -0.0010376845 -0.0040554283 -0.03735674
000290 dd 82 5e bb 1e a7 6d bc 53 fa 19 bd fa ec a0 3d
       -0.0033952512 -0.014505176 -0.037592243 0.078577
0002a0 c6 a0 23 3c dd b3 e5 39 7d 3d 55 3b 99 48 8e bb
       0.009987062 0.00043812292 0.003253787 -0.0043421504
0002b0 a1 2d 86 bc de e8 97 3c 38 72 0e 3d e0 2d 3a 3c
       -0.01637918 0.018543657 0.034776896 0.0113634765
0002c0 9f 4a e2 3c da 91 3d bc fa 38 95 3a 39 f0 b7 bc
       0.027623473 -0.011570418 0.0011384778 -0.022453414
0002d0 6e 66 9c 3c 65 ca c1 3a 29 e3 0f bd 9a 56 4e 3d
       0.019091811 0.001478505 -0.035128746 0.05037556
0002e0 37 cb 4b 3d 95 8e 39 3d 1a 17 31 bc 60 35 86 3c
       0.049754348 0.045301992 -0.0108087305 0.016382873
0002f0 28 6e 14 bc 30 64 29 3b 5d ab 1d 3d 78 86 3a bd
       -0.009059466 0.002584707 0.038493503 -0.045538396
000300 3a b6 b5 3c ee 6d fa 3c 42 0c 9e 3c 8a cc 95 bc
       0.022181619 0.030569997 0.019292954 -0.018286008
000310 a6 4e 6d 3c 1b 85 d6 bc f3 9b 74 bc fc 47 61 3c
       0.014484083 -0.026186517 -0.014929759 0.013750073
000320 03 07 8c 3c 4d 50 8d 3c 17 1a 86 3b 58 da 3d bd
       0.017093187 0.017250204 0.0040924656 -0.046350807
000330 39 82 bd 3c b8 30 d4 39 5a 94 7b 3c 96 46 8f bd
       0.023133384 0.0004047209 0.015355194 -0.06995885
000340 77 ae 92 bc ad 21 b7 3c 11 63 47 bc 3b 0c 2f bd
       -0.017905457 0.022354925 -0.012169615 -0.042736273
000350 2d ce d5 3c 0b ef 67 3d 5c 32 b9 3d 59 eb 24 bd
       0.026099289 0.056624454 0.090428084 -0.040263508
000360 7e 2c 59 bb 38 e3 80 bc ea 62 ae bc cf ca 08 bd
       -0.0033138092 -0.015733346 -0.0212874 -0.03339654
000370 93 58 42 3c e6 86 c1 3c b9 1f 53 3c 2a a1 2c 3d
       0.011861938 0.023623895 0.012885981 0.042145886
000380 6c 5f 1d bd 5a eb 71 3d 98 cf 94 3c 75 2d 19 bd
       -0.03842108 0.05906234 0.018165395 -0.037396867
000390 d0 7e b8 bc f5 a8 fd bc 3f 73 1e ba 10 32 ed 3c
       -0.022521406 -0.030964354 -0.00060443947 0.028954536
0003a0 d8 30 23 bd 23 65 b0 bc 9d 65 cd bc 56 07 d7 3c
       -0.039841503 -0.0215326 -0.025072867 0.026248615
0003b0 90 9a 53 bd cb c8 7c 3d 32 ce 8d 3c d0 09 1f bc
       -0.051661074 0.06171493 0.017310236 -0.009706929
0003c0 e4 9f f2 bc c8 9c a5 bc 34 2c c6 bc b6 08 2b bb
       -0.029617257 -0.02021636 -0.024191 -0.0026097721
0003d0 c2 09 d2 bc 20 f7 72 bc 5e 2c c2 bc 14 84 88 3c
       -0.025639419 -0.014829427 -0.023702797 0.016664542
0003e0 dd 30 20 bc a1 a0 8a bb de ea 82 3d 8a 6b cd 3d
       -0.009777275 -0.0042305742 0.063924536 0.10030277
0003f0 f8 17 78 bc 51 87 a5 ba b7 dc fc bc 79 8b 41 bc
       -0.015142433 -0.0012628828 -0.030866964 -0.011813038

dense1.1.bias f4 [30]
000000 f5 94 bc bc 7a 31 5e 3b 0c 10 f2 b8 af 12 bd 3b
       -0.023020247 0.0033904002 -0.00011542448 0.0057700495
000010 13 87 58 bc 4c 43 85 3a 6d 12 7b bc e2 88 e8 bc
       -0.013215798 0.0010167151 -0.015324217 -0.028385583
000020 1a f8 85 bc c1 94 1b b9 40 7c 9f bb e5 23 6a 3b
       -0.016353656 -0.00014837367 -0.0048671067 0.0035726961
000030 2f f7 be bb c6 09 6e 39 33 74 33 bc 67 5a d5 ba
       -0.0058278064 0.0002270109 -0.010952997 -0.0016277552
000040 1c a8 0a 3c cc 80 04 bb 50 be ab bc e2 3f 56 bc
       0.008462932 -0.002021837 -0.020964772 -0.013076754
000050 49 74 c1 bc 8f 52 d8 bb 55 be 88 bc 7e 57 74 bc
       -0.02361502 -0.0066016386 -0.01669232 -0.014913438
000060 72 8a ce bc c5 29 5b bc ff ab e7 ba 8e 73 ea 39
       -0.0252125 -0.013376658 -0.001767516 0.00044718053
000070 28 43 d2 bb 2e 03 0e bc
       -0.006416697 -0.00866775

dense2.2.weight f4 [2, 30]
000000 ab 41 e0 bd 68 85 0d be 10 9c 29 be cd 54 8f 3d
       -0.10950025 -0.13820422 -0.1656344 0.06998596
000010 b7 34 26 bd 0b 25 8d bc 0b e6 48 be d8 03 f6 bd
       -0.040577617 -0.017229578 -0.19619004 -0.12012452
000020 ff 50 1b 3c 80 71 60 be d3 c3 a1 3d 49 21 9c bd
       0.00947976 -0.21918297 0.07898679 -0.07623536
000030 18 65 dc bd 31 75 99 bd de 07 2e 3e 37 cb 87 bd
       -0.107614696 -0.074930556 0.16995189 -0.06630557
000040 dd 64 42 3e f6 be 5b bc e5 85 04 3e 6e 66 fc bd
       0.18983789 -0.013412228 0.12941702 -0.123242244
000050 de 14 16 be a8 8b b2 3d c8 9f 5c 3b 0d 1b 48 be
       -0.14656398 0.087180436 0.0033664573 -0.19541569
000060 6c 60 b7 3c 18 28 49 be 0d ac 91 bd 94 bd 97 bd
       0.022384845 -0.19644201 -0.07112894 -0.07409206
000070 e1 9d 1e be 7c 19 56 3d e0 17 f4 3d 8f 7c a3 3d
       -0.15489914 0.052270398 0.11918616 0.07982742
000080 e4 09 01 3c 55 f6 8a bd ef 32 a7 3c 7d b9 10 be
       0.007875893 -0.06785265 0.02041003 -0.14133258
000090 02 b1 00 3e eb a6 d1 3d 58 a6 58 3e 6f 53 42 bc
       0.12567523 0.10236915 0.21157205 -0.011860712
0000a0 1e 74 eb bd 2d bb 00 bd d1 be 17 3d 2e 7a 47 bd
       -0.11496757 -0.031428505 0.03704721 -0.048700504
0000b0 bc 8b 4c 3d ff 4d 49 be 6a cd 6f 3c 18 70 28 3e
       0.04993795 -0.1965866 0.014636377 0.1644901
0000c0 92 68 d5 bd e7 3c 2f 3e d3 b0 26 3d 85 6d af bd
       -0.10420336 0.17113076 0.040695976 -0.08565811
0000d0 47 2e 29 3e 19 3d 24 3e 01 99 89 bd 39 86 67 bd
       0.1652156 0.16038932 -0.06718636 -0.05652449
0000e0 89 75 8d 3d 26 96 02 3e 33 63 00 3d 18 a0 12 3e
       0.06907184 0.1275259 0.031344604 0.14318883

dense2.2.bias f4 [2]
000000 df c6 07 bd 05 f7 7f bd
       -0.033148643 -0.062491436
