checkpoint_dir/CNN_3ways_special1_cross1/ADD_56.pth (torch, 693459 bytes, 4 tensors)

dense1.1.weight f4 [30, 5760]
00000000: 3f40 bfbc fcd4 02bc 598e b2bb 0f14 1abc
00000010: fb7c 34bc 539f 8fbc 70b5 36bd 73d8 beba
00000020: a9e6 a7bc e7b5 01bb 7c71 efbc 4d93 26bd
00000030: fd2c c73b 5839 e23b 364a 463c fcc1 5d3b
00000040: ceac 4b3b 29ae 9b3c f4e5 833b 2ea4 c4bb
00000050: 413e a8bc 82b8 94bc bd45 97bc 0547 5bbd
00000060: 9b87 0ebd 1a7e 87bc b46b 803c c93e 673c
00000070: 54e2 ce3b 7fcc 84bb 6ab7 e7bb ddad 2fbc
00000080: f990 babc ccd2 22bd a91b ec3b 14c4 04bb
00000090: b845 57bc c43a 57bc fa0e dbbc 67c0 fabb
000000a0: 2b80 72bc 2ed5 99bc e436 24bb e9ec 4ebc
000000b0: 2b38 25bc 292b b3bb d2d3 64bc 6570 d7bb
000000c0: e9d6 3abb ddf6 003c 6d34 60bb 5717 d4bc
000000d0: 4f92 0dbc 0574 ae3a ac7e 99bb 3f11 18bc
000000e0: 376f 0cbd a48c f5bb 99fa 18bd d3a3 90bc
000000f0: 0974 79bc eff3 1dbc f4d5 ee3b 2203 233c
00000100: 1adc 98bc b236 b23c 1a91 873c ba03 cb3c
00000110: b24a f1ba e250 ae3b 6995 5b3c 9d83 2fbd
00000120: 8864 2d3c 09c6 d0bb 6d8f 07b9 35fb b63c
00000130: 46df 85bc d5da 9dbb abb7 0a3c 0b1b 46ba
00000140: 3a2d 7a3c 7f85 21bc 8036 d83b 6066 d5bc
00000150: 0ef7 d838 1ef9 49bc 13ee 9f3c 2449 163d
00000160: 4e80 2abc 4d56 45ba 1630 a23c 5a21 dc3a
00000170: ab83 0a3b c9e8 773b 2dc6 02bc c46c 5a3c
00000180: a8f8 253a 971c 1fbb db8e 3dbc 2b8f c53c
00000190: aa4b 2c3d ee5a 7dbc 3b68 083d 447e 36bc
000001a0: 0838 c6bc ed6f 6c3c cc26 39bc caf0 e4bb
000001b0: 4e5a b53b 1dce 52bc 4bc2 c5bb 42e7 483c
000001c0: e85e 063b 4516 bbbc f3e0 cbbb f330 8d3c
000001d0: 8b4f 7fba 4588 16bb adde 4e3c a0b0 6fbc
000001e0: 2569 463c 174e 12bd 41ce 153c 165d 283c
000001f0: f832 533c 175c 613c 63d3 babb 8b4d 153c
00000200: a38f d5bc f706 e43b ab88 88bc 937f 18bc
00000210: 84bd 39bb db05 25bc 0593 60bb ca03 84bb
00000220: 410d 08bd 9804 71bc 19eb 7abc 6b0d b93b
00000230: 3a94 70bb 297e 8b3c e70d b0bb 8792 ebbb
00000240: d661 d1bb 33ef 493b 1037 29bb bb8e 733c
00000250: 123e 53bc 90b6 333b d5f0 2fbc 8113 e83b
00000260: 8759 11bc 5d15 67bc c805 fbbc 215a 16bc
00000270: 7f6a 453c 9684 f93b 6ad0 c4bb 0378 39bd
00000280: f303 44bc 42af 813c 209d 2ebc c6bc d9bc
00000290: f116 843c d64d 9b3b f554 1cbd 2131 39bd
000002a0: 9f49 123d e9d7 a73b df42 27ba 2fe5 803b
000002b0: 763a 233c cdd8 cf3c de5e 5dbc 7e9e 46bc
000002c0: c8b0 283d a204 ccbc a0ce 7ebb 2ce4 d1bb
000002d0: a805 e8bb dd17 91bc ce52 f9bb 4989 62bc
000002e0: 5959 e3bc 5d7f 8e3b 6bcb f13a 9bbe 89bc
000002f0: 4a11 55bb dc22 9d3b 625e 1bbc bd48 d23b
00000300: 01a8 10bc 89d8 c9bc 55ca 58bc 704f c3bc
00000310: dc0b f0bc 74ae 73bb 551b f5bc da80 c3bc
00000320: c0fa 06bb a7c2 8fbb bba2 8cbb f7ce 12bc
00000330: cc62 ddbb 4179 c7bb 8c67 643c 81aa 8f3c
00000340: aaf6 433c 4135 ddba a26c 68bc 8fd5 f93c
00000350: 13a4 aeba 3183 b03c 9c86 8ebb 9567 2f3c
00000360: 3705 163b 83ce 92ba 5f98 65bc 30f9 8dbc
00000370: 379d 82bc efc2 0fbc 1823 a2bb 1776 4f3b
00000380: 0b92 cebb d976 163c dffb 59bc 4522 383b
00000390: 5575 91bc bbf1 6b3c 5687 11bc bfa1 43bc
000003a0: 6deb 9abb 0131 203c 7d98 efbb 5877 a13c
000003b0: 5ab9 9b39 5a86 57bc 3352 63bc 796c e83b
000003c0: 2b87 313c 532f 13bd d7b7 1b3c 1b97 92bc
000003d0: 6e01 c5bb 4d26 b3bc 3cd1 52bc fb76 1fbc
000003e0: f950 613c ed59 72bc ce6f c2bb dba9 a73b
000003f0: f03f bcbc 8035 a83a 2d41 103c 55fd 613b
-0.023346065 -0.00798535 -0.005449098 -0.009404196 -0.011016126 -0.017532026 -0.044606626 -0.0014560357
-0.02049573 -0.001979226 -0.029228918 -0.04066782 0.006078361 0.0069038086 0.012102654 0.0033837548
0.0031078341 0.019003944 0.0040252153 -0.006001017 -0.020537497 -0.018154386 -0.018465871 -0.053534526
-0.034797292 -0.016539622 0.015676357 0.01411409 0.0063136015 -0.004052698 -0.007071425 -0.010722605
-0.022774206 -0.039751813 0.007205446 -0.0020258473 -0.013139181 -0.013136569 -0.02674054 -0.0076523307
-0.014801065 -0.01877841 -0.0025057131 -0.012629726 -0.010084192 -0.0054677916 -0.0139665175 -0.006574678
-0.0028509444 0.007871357 -0.0034210936 -0.025890036 -0.00864084 0.0013309723 -0.00468429 -0.009281456
-0.03428575 -0.0074935723 -0.037348364 -0.017656242 -0.015225419 -0.009640678 0.007288689 0.009949477
-0.01865964 0.021754596 0.016548682 0.02478205 -0.0018409102 0.0053197006 0.013402321 -0.042850126
0.010583051 -0.006371264 -0.00012928034 0.022336582 -0.016341817 -0.0048173466 0.008466641 -0.00075571303
0.015269572 -0.009858488 0.006598294 -0.026049793 0.000103457 -0.012327461 0.019522702 0.036690846
-0.010406567 -0.00075278134 0.01979832 0.0016794608 0.002113561 0.003782796 -0.007981819 0.013331596
0.0006331303 -0.0024278515 -0.011569704 0.02411612 0.042064346 -0.015463574 0.033302527 -0.0111385025
-0.02419664 0.014430982 -0.011300754 -0.006986712 0.005534447 -0.012866524 -0.0060351244 0.012262167
0.0020503346 -0.022837767 -0.0062218844 0.017235255 -0.0009739331 -0.0022969407 0.012626332 -0.014629513
0.012110029 -0.035719004 0.009143413 0.0102761 0.01289057 0.013754866 -0.005701469 0.009112726
-0.026069468 0.006958838 -0.01666673 -0.00930776 -0.002834172 -0.010072197 -0.0034267318 -0.004028772
-0.033215765 -0.014710568 -0.015314841 0.0056473515 -0.0036709444 0.017027931 -0.005372751 -0.0071890983
-0.006389837 0.003081274 -0.0025820173 0.014865573 -0.012893217 0.0027422048 -0.010738571 0.007082403
-0.008871443 -0.0141042145 -0.030642405 -0.009176762 0.012049316 0.0076146824 -0.00600629 -0.045280468
-0.011963832 0.01583064 -0.010657579 -0.026579272 0.01612422 0.0047395034 -0.03816696 -0.04521287
0.03571474 0.005122174 -0.0006380509 0.003933571 0.009962669 0.025371933 -0.013511388 -0.012122748
0.041184217 -0.024904553 -0.0038880482 -0.006405374 -0.0070807524 -0.017711574 -0.007608748 -0.013826677
-0.027752565 0.004348679 0.0018447464 -0.01681452 -0.0032511526 0.0047954153 -0.009482952 0.0064173625
-0.008829118 -0.024639385 -0.013231833 -0.02384159 -0.02930253 -0.003718284 -0.02992026 -0.023865152
-0.0020596236 -0.004387218 -0.00429186 -0.008960477 -0.0067561623 -0.0060874526 0.013940703 0.017537357
0.011960665 -0.0016876833 -0.014186056 0.03049734 -0.0013324044 0.021546932 -0.004349543 0.010705848
0.0022891292 -0.0011200461 -0.014013379 -0.017330736 -0.015944107 -0.008774503 -0.004948031 0.003165608
-0.006304031 0.009183609 -0.01330468 0.0028096598 -0.017756144 0.014400895 -0.008882364 -0.011940419
-0.004727772 0.009777308 -0.007311879 0.019710228 0.00029702001 -0.0131545905 -0.013874578 0.007093009
0.010835449 -0.035933804 0.00950428 -0.017894318 -0.0060121333 -0.02186885 -0.012867268 -0.009732957
0.013752216 -0.014791948 -0.0059337383 0.005116684 -0.022979707 0.0012833327 0.008804602 0.0034483273

dense1.1.bias f4 [30]
00000000: 07e1 bf3b 30bf a2bc 421d 823b 25fc 20bc
00000010: b056 8bbc 88e8 8bbc 2f2e cbbc 623a 00b9
00000020: 15fa 7f3b bf4c 1c3c 142c 8dbb 0439 46b9
00000030: c5e4 9fbc e0ab 10ba 3eef 24bc 7752 74bb
00000040: ebcf 54bc a3d9 633c 57f3 8fba b8e3 00bc
00000050: b2da aebc b5cf b2bc dc05 37bd 44d9 7b3b
00000060: a42f a1bb 984e 02bc c37e b7bb 8769 423a
00000070: f4ff 9cbc 1f93 58bc
0.005855683 -0.019866556 0.003970773 -0.009825741 -0.01700911 -0.017078653 -0.024802295 -0.0001222878
0.0039058973 0.009539782 -0.004308233 -0.00018903991 -0.019518266 -0.00055187754 -0.010066805 -0.0037280598
-0.012989025 0.013906869 -0.0010982555 -0.007866792 -0.021344516 -0.021827558 -0.044683322 0.003842906
-0.0049190093 -0.0079533085 -0.005599828 0.00074162375 -0.019165017 -0.01321867

dense2.2.weight f4 [2, 30]
00000000: b056 c7bd 8498 06be 974f ea3d 0e0c 123d
00000010: fff2 8d3d 8cef c93d 888e 1b3e a444 7cbd
00000020: fd68 8ebd eab3 393d bb44 00be 89bb d6bb
00000030: 08e7 b3bd 88f1 d0bd 0a6c 19bd 95b6 0a3e
00000040: ccec d53d 9af8 43bc 7a39 e9bd f547 b83d
00000050: 38a6 9f3d 51bd fc3d c019 3fbd 4442 12bd
00000060: f71c 873d b1c6 893b 793d 53bd 2528 9bbd
00000070: 89ae 373e 65b2 133e c8b1 83bd fd10 703d
00000080: 63f1 3cbe bde6 583e b9e0 d93d fbbc bebc
00000090: 365f bdbc afd2 09be 694f 2fbe 2293 ccbd
000000a0: 9675 d23d 2fb3 ab3d 1785 4f3d e286 bebc
000000b0: afe8 fa3d 0eb4 56bc 6657 49bc 4c8e febd
000000c0: f517 ed3d 6176 4dbd 0473 e6bd d645 67be
000000d0: 8552 47be 60dd 35be a1dc 4abe b043 b83d
000000e0: 10c3 d43d 086a 053d 1954 b2bc c281 4abe
-0.09733331 -0.13144118 0.11440962 0.035656027 0.069311135 0.09860143 0.1519109 -0.0615889
-0.06953619 0.045337595 -0.12526219 -0.0065531177 -0.087843 -0.102023184 -0.03745655 0.13546212
0.10445556 -0.011961127 -0.11387916 0.089981 0.077953756 0.12340797 -0.046655416 -0.035707727
0.065973215 0.004204594 -0.051572297 -0.07576016 0.17937674 0.14423521 -0.064303935 0.05860995
-0.18451457 0.2118177 0.106385656 -0.023283472 -0.02311669 -0.13459276 -0.17120136 -0.09989001
0.10276334 0.08383786 0.050664034 -0.023257677 0.12251412 -0.013104452 -0.012288904 -0.12429485
0.11576835 -0.050161723 -0.11252406 -0.22585234 -0.19465072 -0.17760229 -0.19810726 0.08997285
0.10388768 0.032571822 -0.021768617 -0.19776061

dense2.2.bias f4 [2]
00000000: 63c2 fabc a6ac a5bd
-0.030610269 -0.08089571
