checkpoint_dir/CNN_baseline_new_cross2/ADD_62.pth (torch, 693459 bytes, 4 tensors)

dense1.1.weight f4 [30, 5760]
0.034173444 -0.019091647 0.027215542 0.0013798801 0.0070031933 0.028905826 0.007939072 0.007881335
-0.02268064 0.05500466 0.031461984 -0.008435427 0.013283065 -0.0048882966 0.03440836 0.0113702
0.010843466 0.04537466 0.021401966 -0.0032899007 0.041367274 -0.039424483 0.12437293 0.0066275126
0.04028276 0.006955782 -0.014969319 0.0551211 -0.050128542 -0.012102098 0.013067359 -0.0164535
0.042516656 0.003062851 0.006864577 0.0024956658 -0.014467881 -0.0060950546 -0.030740786 0.037206773
-0.026328279 0.049845457 0.0032429371 -0.00489272 0.08142651 0.023654113 0.04245851 0.04407182
0.020562327 -0.005794486 -0.002707926 0.004773061 -0.009193834 -0.041295554 0.008107516 0.035063088
-0.051746495 0.034602847 -0.037662026 0.011636944 -0.012794088 0.03385348 0.013479919 0.00015455177
-0.0011975022 -0.018275706 0.021754278 -0.019025933 0.072157614 -0.00054442906 -0.022688176 -0.0037669565
-0.0062471647 -0.00048060445 -0.015803518 0.0027368132 0.022773163 -0.013612717 0.034449987 0.02675203
0.013689287 0.00011786078 0.011439671 0.021349054 0.03037565 0.07819294 -0.06468351 0.004256343
0.010027207 0.03985044 -0.006802489 0.02442543 -0.023823725 -0.012018894 -0.01785242 -0.0003772896
0.047212567 -0.030306915 0.0024541256 -0.020222211 0.04461428 0.0012253029 0.011158157 -0.0019896422
-0.015330753 0.019966293 -0.028555723 0.0035290432 -0.009148347 0.01835527 0.008580793 -0.02149826
-0.0036163542 0.0059766225 0.00039693576 -0.023124544 -0.0055246293 0.029078983 0.011039324 -0.013375799
-0.0054375445 -0.017681887 0.00880243 -0.00878849 0.015613962 0.023956068 0.034937635 -0.056235198
0.005001421 -0.005000074 -0.0037270307 0.03317791 0.02881978 -0.013461066 0.035625547 -0.017187687
-0.01645937 0.029814433 0.06608685 0.03945535 0.009828329 -0.012377501 0.024575457 0.026644904
-0.0077270623 0.022735717 -0.034686178 -0.0011547579 -0.006030147 0.021837592 -0.019653974 0.063889444
-0.006634452 -0.008078525 0.025207778 0.022906575 0.022254355 -0.012604537 -0.05580397 0.014803072
0.0060259094 -0.034093484 0.016246662 -0.028205486 -0.00037437654 0.025433071 -0.0036332728 -0.017589362
0.021883905 -0.047185067 -0.006766297 0.046046767 0.017492408 -0.005907339 0.018596726 -0.012821203
-0.00604125 -0.0025188813 -0.0009777029 0.004096805 0.019321896 -0.041158 -0.011260136 0.018613966
0.008529909 0.07160114 0.019728558 -0.020394212 0.014173565 0.0473418 -0.02493067 0.012424344
0.038709294 -0.023192883 -0.017253255 -0.019367447 -0.01623479 -0.017530497 0.015236488 -0.0029758401
-0.020734679 0.016251339 0.029979398 0.023050798 -0.013592606 -0.011219132 -0.060288932 -0.0038697298
-0.006323101 -0.015271587 0.07519059 0.036213703 -0.00033544202 0.06507971 -0.01765969 -0.010647626
-0.012254349 0.04835241 -0.0051093753 -0.021729123 0.06879051 -0.011960759 0.019224562 -0.03558531
0.040141653 -0.012861835 0.00046456745 0.029441569 -0.017734667 0.0014507564 0.0032783037 0.057586472
0.012263141 -0.013103544 0.030433804 -0.024219694 0.049649034 0.021937633 -0.039573655 0.0014195193
-0.031712398 -0.011673256 0.015517715 0.03309094 -0.0030433796 0.06840037 0.05099794 -0.0014619045
0.07578763 -0.011064464 -0.05888543 -0.0035646234 0.011472868 0.0103682345 0.01181813 -0.029535154
00000000: 74f9 0b3d 1666 9cbc 21f3 de3c 18dd b43a
00000010: 0b7b e53b e9cb ec3c e212 023c b720 013c
00000020: c0cc b9bc 914c 613d 48de 003d bf34 0abc
00000030: 36a1 593c 012e a0bb c8ef 0c3d 134a 3a3c
00000040: cba8 313c c8da 393d 2d53 af3c 609b 57bb
00000050: bb70 293d 917b 21bd 3cb7 fe3d 9b2b d93b
00000060: 89ff 243d 54ed e33b e041 75bc aac6 613d
00000070: 9653 4dbd e147 46bc 7a18 563c 7ec9 86bc
00000080: f225 2e3d 1dba 483b 3ff0 e03b 538e 233b
00000090: b10a 6dbc 06b9 c7bb 1ad4 fbbc 2166 183d
000000a0: 67ae d7bc c02a 4c3d 7587 543b 1c53 a0bb
000000b0: f1c2 a63d 45c6 c13c f9e8 2d3d a784 343d
000000c0: 5372 a83c acdf bdbb 7677 31bb 5667 9c3b
000000d0: bca1 16bc 8725 29bd 63d5 043c 509e 0f3d
000000e0: 22f4 53bd b7bb 0d3d 7f43 1abd e1a8 3e3c
000000f0: 4b9e 51bc f2a9 0a3d e1da 5c3c 2d0f 2239
00000100: 82f5 9cba efb6 95bc 0736 b23c 46dc 9bbc
00000110: 5fc7 933d 04b8 0eba 8edc b9bc 0bdf 76bb
00000120: 04b5 ccbb a3f9 fbb9 6176 81bc 1b5c 333b
00000130: c98e ba3c e007 5fbc 6e1b 0d3d 1327 db3c
00000140: 0849 603c 062c f738 756d 3b3c 36e4 ae3c
00000150: 5bd6 f83c 9f23 a03d ca78 84bd cb78 8b3b
00000160: 2849 243c 373a 233d 6ae7 debb d717 c83c
00000170: f929 c3bc e5ea 44bc 3d3f 92bc f4ce c5b9
00000180: f761 413d 3546 f8bc 65d5 203b 0da9 a5bc
00000190: 77bd 363d 589a a03a b4d0 363c a864 02bb
000001a0: d72d 7bbc 5a90 a33c b1ed e9bc 8547 673b
000001b0: f3e2 15bc cb5d 963c 7496 0c3c 1e1d b0bc
000001c0: 5b00 6dbb 8bd7 c33b d11b d039 af6f bdbc
000001d0: f307 b5bb 0c37 ee3c 48de 343c 2b26 5bbc
000001e0: 6e2d b2bb 9bd9 90bc 1138 103c 99fd 0fbc
000001f0: b4d1 7f3c 843f c43c c41a 0f3d e156 66bd
00000200: f6e2 a33b a9d7 a3bb 3341 74bb 8fe5 073d
00000210: 7617 ec3c ce8b 5cbc 18ec 113d 31cd 8cbc
00000220: cdd5 86bc 663d f43c 8b58 873d ef9b 213d
00000230: 0007 213c 01cb 4abc 7852 c93c 6a46 da3c
00000240: 4c33 fdbb 4140 ba3c 1813 0ebd 3f5b 97ba
00000250: 8a98 c5bb c0e4 b23c 5f01 a1bc 78d8 823d
00000260: d165 d9bb ca5b 04bc 8b80 ce3c 92a6 bb3c
00000270: c44e b63c 4383 4ebc b492 64bd 9688 723c
00000280: fe74 c53b 9ca5 0bbd b817 853c 310f e7bc
00000290: f847 c4b9 0459 d03c 341c 6ebb 9117 90bc
000002a0: e045 b33c 2145 41bd d0b7 ddbb 899b 3c3d
000002b0: 3d4c 8f3c 5a92 c1bb 2958 983c 0610 52bc
000002c0: aef5 c5bb d113 25bb 4426 80ba 7e3e 863b
000002d0: f448 9e3c 4a95 28bd 6f7c 38bc 517c 983c
000002e0: 08c1 0b3c 9ea3 923d c99d a13c c311 a7bc
000002f0: 3e38 683c 7ae9 413d 683b ccbc 7a8f 4b3c
00000300: a38d 1e3d 00ff bdbc b356 8dbc 7ba8 9ebc
00000310: d3fe 84bc 1e9c 8fbc 76a2 793c 5006 43bb
00000320: c6db a9bc 8721 853c 5b97 f53c 07d5 bc3c
00000330: 86b3 5ebc 73d0 37bc 87f1 76bd 4b9b 7dbb
00000340: 0432 cfbb ae35 7abc 86fd 993d d254 143d
00000350: 44de afb9 8348 853d 0eab 90bc 6173 2ebc
00000360: 77c6 48bc 2d0d 463d 8c6c a7bb 4601 b2bc
00000370: 0ae2 8c3d 0ff7 43bc d47c 9d3c e7c1 11bd
00000380: 936b 243d 72ba 52bc 3091 f339 722f f13c
00000390: 4b48 91bc 4f27 be3a cfd8 563b cbdf 6b3d
000003a0: 57eb 483c 3fb0 56bc 5050 f93c 6168 c6bc
000003b0: c95c 4b3d 8db6 b33c fc17 22bd 2a0f ba3a
000003c0: dce4 01bd 2f41 3fbc 043e 7e3c 5e8a 073d
000003d0: 7073 47bb 7e15 8c3d 37e3 503d 609d bfba
000003e0: 8c36 9b3d ba47 35bc d931 71bd 759c 69bb
000003f0: b2f8 3b3c 87df 293c d4a0 413c b5f3 f1bc

dense1.1.bias f4 [30]
-0.010786426 -0.029514948 -0.0029152764 0.0041938988 0.0076569407 -0.00690583 -0.021128997 -0.007335155
-0.03138529 -0.007457028 -0.014820564 -0.014021869 -0.004570193 0.0004898646 -0.0074109104 -0.0022399095
0.018169394 -0.015339305 0.002925825 0.002000273 -0.0043051494 -0.010771618 0.009530514 -0.015186482
-0.0049353433 -0.010731015 -0.024902886 -0.0072112833 -0.011996025 -0.013799535
00000000: 8db9 30bc 55c9 f1bc 390e 3fbb f96c 893b
00000010: 13e7 fa3b 4d4a e2bb b816 adbc bd5b f0bb
00000020: dd8d 00bd 165a f4bb f3d1 72bc fbbb 65bc
00000030: 8fc1 95bb 426a 003a 39d7 f2bb 72cb 12bb
00000040: fbd7 943c b551 7bbc 33bf 3f3b 0317 033b
00000050: 3612 8dbb 717b 30bc df25 1c3c b9d0 78bc
00000060: a9b8 a1bb 24d1 2fbc 2301 ccbc a14c ecbb
00000070: fa8a 44bc 7217 62bc

dense2.2.weight f4 [2, 30]
-0.067876235 0.040903565 0.15986621 -0.08898379 -0.17613584 0.1242561 0.06381914 -0.16929796
0.21561988 0.006427138 -0.027415797 0.044262048 -0.109500386 -0.035526697 -0.047123063 -0.011945821
0.17910701 0.20056213 0.15439102 -0.074123114 0.12039362 0.08432921 0.068296075 0.099380784
-0.04848022 0.13695061 -0.06991173 0.22305349 0.15315579 -0.07059112 -0.21837813 -0.14001621
0.15873823 0.0771561 -0.053002585 -0.13150999 -0.17523515 0.12916987 -0.20352402 0.15365452
0.1538892 -0.10738793 -0.23418485 0.13756847 0.08973313 0.14556238 -0.004283479 -0.092813544
-0.08117563 -0.17858851 -0.08753647 0.04486805 0.20301707 0.06476557 -0.18634374 -0.114379674
0.08223969 0.040621087 -0.06403813 -0.00891713
00000000: b202 8bbd 7f8a 273d f8b3 233e 223d b6bd
00000010: f45c 34be fb79 fe3d 9cb3 823d 725c 2dbe
00000020: 75cb 5c3e be9a d23b 1897 e0bc 1f4c 353d
00000030: bd41 e0bd 7184 11bd 1d04 41bd 68b8 43bc
00000040: d467 373e 2960 4d3e ae18 1e3e dccd 97bd
00000050: ee90 f63d cbb4 ac3d d0de 8b3d 2788 cb3d
00000060: 3293 46bd c83c 0c3e e22d 8fbd 2268 643e
00000070: dfd4 1c3e 1492 90bd 849e 5fbe 6960 0fbe
00000080: 468c 223e 0404 9e3d 3d19 59bd 8eaa 06be
00000090: d870 33be 1b45 043e 9a68 50be 9c57 1d3e
000000a0: 2195 1d3e 34ee dbbd 27ce 6fbe c0de 0c3e
000000b0: 01c6 b73d 4e0e 153e 6d5c 8cbb 0715 bebd
000000c0: 693f a6bd e8df 36be 5246 b3bd 8fc7 373d
000000d0: b5e3 4f3e d0a3 843d e5d0 3ebe e43f eabd
000000e0: 486d a83d 4c62 263d 6c26 83bd 2719 12bc

dense2.2.bias f4 [2]
0.09423685 0.0005590495
00000000: 40ff c03d 2d8d 123a
