checkpoint_dir/CNN_baseline_new_cross4/ADD_75.pth (torch, 693459 bytes, 4 tensors)

dense1.1.weight f4 [30, 5760]
-0.0069827554 0.0067420118 -0.01099771 0.0024356956 -0.032070726 0.08584277 -0.034309667 0.019068858
-0.053043123 0.005248518 -0.017186034 0.016650546 -0.012226792 -0.0016149501 0.015650012 0.014702286
-0.009037949 -0.00091790117 -0.08888537 0.007865444 -0.014035734 0.0021302258 0.0028091557 -0.004965354
0.05504825 0.008176737 0.023678452 -0.026757594 -0.0043291454 -0.008933311 0.0035491951 0.010895487
-0.026323047 0.051206883 -0.04488553 -0.007309028 -0.013159061 -0.031205615 -0.015550916 -0.011548245
0.010518824 -0.019806806 0.021371769 -0.006396975 0.009477128 0.05433579 -0.011030288 0.029038973
0.09827425 0.012447395 -0.021972531 -0.027200822 -0.017101156 0.0015782267 0.040159672 -0.050277825
-0.006157328 0.09478141 -0.022081755 0.059606466 0.010614376 -0.020283999 -0.003489843 0.069804
-0.054803856 0.018166214 0.05670193 0.011116635 0.0052326457 0.0057537667 0.0072259875 0.03740635
-0.0047437856 0.007587347 -0.009751945 -0.033234484 -0.029829342 -0.03422805 -0.027120197 -0.030022647
0.04763006 -0.024148993 0.022372577 0.061081503 0.046923533 -0.020422183 -0.04027061 -0.014212926
-0.012638195 -0.037674084 0.032027856 0.027511511 0.022419477 0.01718316 0.0059272368 0.0055993735
0.00048917014 -0.02082629 -0.004449997 -0.0049074646 0.010418041 0.027902761 0.028878871 0.031113373
-0.021596773 0.03577719 0.06254135 -0.00091501704 -0.011859921 -0.05876554 0.0070214835 0.05711468
-0.007165163 -0.041392095 0.0156357 -0.016766982 0.003819603 -0.0276322 0.004355234 0.003463531
-0.044972114 0.013815744 0.038196195 0.049886215 -0.049982186 0.0112568075 0.012699808 -0.016599633
-0.0125092035 0.045480415 -0.005761451 0.0024666374 0.021510588 -0.04874669 -0.052057993 -0.020705428
0.031148344 -0.010817329 -0.014813263 0.04883611 0.02832812 0.026511157 0.00026904687 0.03287006
-0.022344876 -0.0054706046 0.009968971 -0.027934005 0.024821928 -0.0020339503 -0.031144692 -0.009067539
0.056633566 0.021885723 0.04996236 0.029694993 -0.09766898 0.06722157 0.043910846 -0.010884816
-0.017548734 0.0124687 0.023828467 -0.014569139 -0.051050834 -0.052817483 0.01071083 0.018147454
-0.05609351 0.015847916 0.025174139 0.025776817 -0.046885468 -0.0689317 -0.029273918 0.0032512457
-0.0012612639 -0.0005096417 0.025736904 0.044165276 -0.014502046 -0.014549209 -0.009829577 0.038678408
-0.021338211 0.00679877 0.014179004 0.035429623 -0.008160735 0.06301303 0.033130758 -0.014151728
-0.00082555256 0.00656856 0.03673384 -0.031710967 -0.030857168 -0.004312967 -0.018789085 -0.025205698
0.004864781 0.08872298 0.009294366 0.034239884 0.066924386 -0.03793328 0.0023746132 0.038984217
0.010878426 0.028487613 0.0714006 0.025805665 0.0053777704 0.01615444 0.016290734 0.019861404
-0.0016652769 -0.009471685 -0.0028222953 -0.023575481 0.019659132 -0.014996928 -0.026514044 0.016750136
-0.034129173 0.072999954 -0.02712594 0.045748007 0.026983572 0.0028605873 0.015598404 0.0009406002
-0.022471668 -0.0040189372 0.0032314856 -0.040768303 -0.004541263 0.01148215 0.0066161915 0.03111442
0.015350053 -0.018578928 -0.008675162 -0.025387842 0.013317132 -0.049961034 -0.045842875 -0.07889154
0.0004055454 -0.05919103 -0.022180054 0.0021993725 0.07058969 0.052487843 -0.019933384 -0.012919136
00000000: 99cf e4bb 18ec dc3b bd2f 34bc 31a0 1f3b
00000010: 985c 03bd 56ce af3d 4b88 0cbd 4b36 9c3c
00000020: bf43 59bd c3fb ab3b bac9 8cbc ba66 883c
00000030: e252 48bc bcac d3ba 7434 803c dbe1 703c
00000040: e813 14bc 4e9f 70ba 8809 b6bd 10de 003c
00000050: 23f6 65bc 429b 0b3b d019 383b 69b4 a2bb
00000060: 467a 613d b9f7 053c 50f9 c13c be32 dbbc
00000070: 81db 8dbb 065d 12bc 9d99 683b fc82 323c
00000080: 6ea3 d7bc 4fbe 513d e4d9 37bd 9280 efbb
00000090: 1a99 57bc eba2 ffbc 45c9 7ebc da34 3dbc
000000a0: 2557 2c3c e241 a2bc d913 af3c b79d d1bb
000000b0: f545 1b3c 358f 5e3d 62b8 34bc 24e3 ed3c
000000c0: 0344 c93d 29f0 4b3c bdff b3bc 42d4 debc
000000d0: b917 8cbc 80dc ce3a 787e 243d 1ff0 4dbd
000000e0: 69c3 c9bb c21c c23d cce4 b4bc e925 743d
000000f0: ebe7 2d3c a12a a6bc dab5 64bb 66f5 8e3d
00000100: 027a 60bd 50d1 943c 4840 683d 8c22 363c
00000110: 9d76 ab3b 188a bc3b fac7 ec3b 6737 193d
00000120: c271 9bbb 489f f83b 9fc6 1fbc e220 08bd
00000130: aa5c f4bc b632 0cbd 2d2b debc 0ef2 f5bc
00000140: bd17 433d 1cd4 c5bc b246 b73c 9930 7a3d
00000150: e432 403d 6c4c a7bc ccf2 24bd 55dd 68bc
00000160: 6f10 4fbc 2450 1abd a42f 033d d25f e13c
00000170: 0da9 b73c b3c3 8c3c 4439 c23b f37a b73b
00000180: a73b 003a e59b aabc 48d1 91bb ccce a0bb
00000190: 6eb0 2a3c 5594 e43c 6293 ec3c 79e1 fe3c
000001a0: b7eb b0bc 1a8b 123d ae15 803d c1dd 6fba
000001b0: 1d50 42bc 23b4 70bd 7914 e63b 15f1 693d
000001c0: bec9 eabb c28a 29bd 7116 803c e95a 89bc
000001d0: 4e52 7a3b ec5c e2bc 5ab6 8e3b 68fc 623b
000001e0: ae34 38bd 6e5b 623c 9d73 1c3d 7d55 4c3d
000001f0: 1fba 4cbd 796e 383c db12 503c f4fb 87bc
00000200: 67f3 4cbc ac49 3a3d 8eca bcbb 4fa7 213b
00000210: f936 b03c 9caa 47bd c33a 55bd 6e9e a9bc
00000220: d02a ff3c 2b3b 31bc 54b3 72bc 5f08 483d
00000230: 6010 e83c ed2d d93c dc0e 8d39 c2a2 063d
00000240: 9a0c b7bc c242 b3bb e554 233c dbd5 e4bc
00000250: 5b57 cb3c 064c 05bb 2723 ffbc 0490 14bc
00000260: 99f8 673d b049 b33c 55a5 4c3d ea42 f33c
00000270: ad06 c8bd 76ab 893d dcdb 333d 3a56 32bc
00000280: 5dc2 8fbc 8549 4c3c eb33 c33c 66b3 6ebc
00000290: ae1a 51bd 2557 58bd 7a7c 2f3c f8a9 943c
000002a0: 4fc2 65bd 7dd3 813c ff39 ce3c e729 d33c
000002b0: fa0a 40bd 102c 8dbd dbcf efbc da12 553b
000002c0: fe50 a5ba 7a99 05ba 33d6 d23c a6e6 343d
000002d0: fd99 6dbc ce5f 6ebc 3c0c 21bc 406d 1e3d
000002e0: 79cd aebc 37c8 de3b 0e4f 683c a71e 113d
000002f0: 9ab4 05bc fa0c 813d 1eb4 073d a6dc 67bc
00000300: e569 58ba 133d d73b 3976 163d 5ce3 01bd
00000310: 2cc8 fcbc ca53 8dbb 91eb 99bc 2e7c cebc
00000320: be68 9f3b 65b4 b53d 6647 183c 1f3f 0c3d
00000330: a70f 893d ed5f 1bbd 669f 1b3b eaad 1f3d
00000340: 6d3b 323c db5e e93c 7a3a 923d 6766 d33c
00000350: 0238 b03b 5156 843c 2574 853c 62b4 a23c
00000360: 6c45 daba 202f 1bbc 42f6 38bb 5e21 c1bc
00000370: 300c a13c adb5 75bc fb33 d9bc 9537 893c
00000380: 08cb 0bbd 0081 953d 3837 debc 4362 3b3d
00000390: a70c dd3c b178 3b3b 7390 7f3c 9c92 763a
000003a0: 8116 b8bc 4ab1 83bb 55c7 533b aafc 26bd
000003b0: e0ce 94bb a11f 3c3c a3cc d83b abe3 fe3c
000003c0: ca7e 7b3c d632 98bc 4422 0ebc 2afa cfbc
000003d0: 1a30 5a3c f1a3 4cbd bdc5 3bbd e391 a1bd
000003e0: 629f d439 4b72 72bd f2b2 b5bc 5923 103b
000003f0: 5491 903d 7efd 563d 564b a3bc c9aa 53bc

dense1.1.bias f4 [30]
0.007467105 -0.017707963 -0.0108189685 0.0075015095 -0.016025137 -0.023525933 0.013035288 -0.009419085
-0.024607083 -0.01539399 -0.008762657 -0.013398432 0.0055595073 0.0020154999 -0.00047332564 0.0028333722
-0.017011188 -0.017318644 0.0029525163 -0.011207203 -0.010675333 -0.013684952 -0.0012799989 -0.011890879
-0.011601341 -0.019148422 -0.03539007 0.0032259973 -0.007854194 -0.0059768073
00000000: 9eae f43b 4a10 91bc 0b42 31bc 39cf f53b
00000010: 2647 83bc 75b9 c0bc f691 553c 8252 1abc
00000020: cb94 c9bc 1337 7cbc 3f91 0fbc 1985 5bbc
00000030: 872c b63b 7a16 043b b128 f8b9 19b0 393b
00000040: 0c5b 8bbc d4df 8dbc 017f 413b 6b9e 37bc
00000050: 98e7 2ebc d936 60bc a3c5 a7ba f6d1 42bc
00000060: 8d13 3ebc 27dd 9cbc 2ef5 10bd 416b 533b
00000070: e1ae 00bc 18d9 c3bb

dense2.2.weight f4 [2, 30]
0.13552676 0.109839745 0.1789245 -0.1511853 -0.12065941 0.0036956633 -0.12001881 -0.02301752
-0.013097097 -0.021851879 0.102041565 -0.0025836315 0.07538217 0.19372036 0.11177152 0.093561895
-0.057475556 -0.13309905 0.09079996 -0.08194565 0.05179134 0.036829993 -0.16171841 -0.048775397
0.017417204 0.07581736 -0.08960156 0.056818776 0.092182636 0.04739788 -0.0001374872 -0.15614805
0.11418653 -0.011148587 0.12808867 -0.127076 0.05096334 -0.15882012 0.102747284 0.10322833
0.02076852 0.17041041 0.09429406 0.017180534 0.082497254 -0.04250891 0.14826521 -0.024981635
-0.046749577 0.16866605 0.045781594 -0.16301374 0.025022253 0.11523257 0.056655653 -0.026672376
0.12385699 -0.10300543 -0.079936035 0.2172401
00000000: 87c7 0a3e a9f3 e03d fc37 373e 52d0 1abe
00000010: 481c f7bd f132 723b 6ccc f5bd 3d8f bcbc
00000020: 3595 56bc b602 b3bc 2bfb d03d 2552 29bb
00000030: f861 9a3d a15e 463e 77e8 e43d 619d bf3d
00000040: 7d6b 6bbd 1e4b 08be 54f5 b93d 1fd3 a7bd
00000050: 2823 543d 0cdb 163d 8399 25be b6c8 47bd
00000060: 86ae 8e3c 2246 9b3d 0681 b7bd ceba 683d
00000070: 40ca bc3d 4824 423d 702a 10b9 46e5 1fbe
00000080: a1da e93d 90a8 36bc ad29 033e 3620 02be
00000090: efbe 503d bea1 22be 2b6d d23d 6069 d33d
000000a0: be22 aa3c 1180 2e3e 3e1d c13d 31be 8c3c
000000b0: 52f4 a83d d31d 2ebd d6d2 173e 49a6 ccbc
000000c0: 7c7c 3fbd cbb6 2c3e 7b85 3b3d 13ed 26be
000000d0: 78fb cc3c 0eff eb3d c20f 683d 0780 dabc
000000e0: bca8 fd3d 83f4 d2bd 81b5 a3bd 3074 5e3e

dense2.2.bias f4 [2]
-0.1058073 0.008741262
00000000: 7fb1 d8bd 8337 0f3c
