checkpoint_dir/CNN_3ways_special1_cross3/ADD_55.pth (torch, 693459 bytes, 4 tensors)

dense1.1.weight f4 [30, 5760]
000000 1a d0 8c 3c 54 a2 45 bc 08 5c a9 bb cb d8 ec ba
       0.017189074 -0.012062628 -0.0051684417 -0.001806998
000010 42 6e 97 3c e4 5a e1 bc df 2e cc 3c 3f 73 15 be
       0.018485192 -0.02750916 0.024924694 -0.14594744
000020 1c 31 25 3d 66 a1 37 3b 35 fa 98 3d 48 a5 c2 3b
       0.040330037 0.0028019785 0.07469598 0.005940113
000030 7a c7 e3 bc ec 90 74 3c 13 d5 38 b9 e5 64 0b bc
       -0.027805079 0.01492713 -0.00017626984 -0.008507942
000040 e4 d9 85 bb b1 b4 a0 3d 09 9f 10 bd 85 77 96 3d
       -0.0040848125 0.07846964 -0.035307918 0.07347015
000050 2f fa d7 bc 2d 02 c6 3c ba da 9e b8 2f 86 ab 3b
       -0.026364414 0.02417096 -7.574768e-05 0.005234502
000060 65 f8 96 3c 1c 2d 89 3d 58 b7 78 bd 03 73 87 bc
       0.01842899 0.06698057 -0.060721725 -0.016534334
000070 cd 60 3a 3b 0a ba 55 3d bd b8 ba 3b 57 a4 92 bc
       0.0028439045 0.052179374 0.005698292 -0.017900629
000080 40 44 92 bd dd 54 4b bb c1 8d 3a bc 2b c7 03 bd
       -0.07141924 -0.0031025924 -0.011386336 -0.032172363
000090 9b 98 65 bc a5 89 8a 3c 88 ff 03 3d 1f 38 a1 bb
       -0.014013435 0.016911337 0.032226115 -0.0049200202
0000a0 f4 bf c8 3b 16 c5 d7 bc 0d 78 42 bd 28 43 2c 39
       0.006126398 -0.026339095 -0.04747777 0.00016428216
0000b0 21 b4 7c 3d c7 22 a4 3c db 6a a5 3c cc 66 78 3b
       0.06169522 0.020036114 0.020192554 0.0037903069
0000c0 ad ab b6 3b 55 0e 1c 3d 82 48 56 bc eb 6e db 3c
       0.0055746646 0.038099606 -0.013078811 0.026786288
0000d0 cb f0 28 bc 34 02 4f bd 6d 74 8f 3c 72 ee 15 bb
       -0.010311316 -0.05053921 0.01751157 -0.002287772
0000e0 8e 02 0f bc a9 a6 22 3d a5 3c 9b 3a ff be 62 3c
       -0.008728636 0.03970972 0.0011843635 0.013839482
0000f0 6d 65 81 bc c3 44 80 bd 1b 41 f6 3b 97 50 35 3c
       -0.015795434 -0.06263115 0.0075150854 0.011066577
000100 06 75 87 3a 7e eb 2f 3d cb 25 b8 bc 04 72 02 3d
       0.0010334558 0.042949192 -0.022478959 0.031847015
000110 d6 b2 a5 3b c2 3f 11 bd 55 83 af bc 5d 29 96 3c
       0.0050567193 -0.035461195 -0.021424929 0.01833027
000120 e3 a9 1b bd 0e 1b 04 bc fa ff dd 3b a0 91 fe bc
       -0.038003813 -0.008063091 0.0067748995 -0.031075299
000130 96 a5 29 bd c4 1f 24 bb 72 1f e8 bc 63 b6 36 3d
       -0.04141768 -0.0025043348 -0.028335307 0.04460753
000140 74 f5 be bb 02 18 39 bd 56 8a 95 bc 0d 0c 91 3c
       -0.0058276 -0.04518891 -0.01825444 0.017705942
000150 15 fa c0 3c 76 30 f6 39 55 22 63 3b d6 84 d9 bc
       0.023556748 0.00046956883 0.0034657915 -0.026552599
000160 81 8b 58 3d ad c9 06 3c d6 f2 4f bd 2d 10 a3 bc
       0.052867416 0.008226794 -0.050768696 -0.019905174
000170 2e 83 06 3d 00 2e 23 bc 04 77 b7 3c 9a 06 ea 3b
       0.032839946 -0.009959698 0.022395618 0.0071419002
000180 a6 bb 85 3c d0 06 87 bb 31 a9 68 bc b1 09 07 3d
       0.01632483 -0.004120685 -0.014200495 0.032968227
000190 e1 f6 28 3d 88 2a f2 3c b4 3c 9e 3a 16 bd ca 3c
       0.041251067 0.029561296 0.0012072534 0.024748366
0001a0 6e 0e c9 bc f6 3d 39 3d cb 70 2b bd d0 86 30 3c
       -0.024543013 0.045225106 -0.041855615 0.010774329
0001b0 6f 45 d7 3c 92 f0 49 bc a0 b6 0c b9 34 47 fc 3c
       0.026278226 -0.012325423 -0.00013419474 0.030795671
0001c0 e2 d5 81 3d 6e c7 85 3c 77 09 19 3d 75 09 15 3c
       0.06339623 0.016330447 0.037362542 0.009096493
0001d0 2d 06 8a bd be 27 33 3c a4 54 07 bc 72 e9 be bc
       -0.06739459 0.010934768 -0.008259926 -0.023304675
0001e0 0d 48 68 3c 38 a1 bc 3c ec 84 82 3c 7c b5 8f bc
       0.0141773345 0.023026094 0.015932523 -0.017542593
0001f0 01 04 c0 bc c3 da 4b bd 00 f7 51 3c 59 3d 4b bd
       -0.02343941 -0.049769174 0.012815237 -0.049619053
000200 23 49 8d 3c 0c 6c e8 bb e9 be 7f 3c 32 46 29 3d
       0.017246788 -0.0070929583 0.015609481 0.04132671
000210 6f 97 84 bc 18 25 b0 bb e5 4c 1e 3d 7e cf 28 bc
       -0.01618549 -0.0053755157 0.03864755 -0.010303376
000220 5a ad 1e 3d 01 06 db bb 7d cc 1e bd 23 e2 fe bc
       0.03873954 -0.0066840653 -0.038769234 -0.03111369
000230 5b a8 d5 3c 9b 75 8b bc a0 86 ed bc a5 6d 6b 3d
       0.026081255 -0.017023852 -0.028994858 0.057477612
000240 e7 06 0e 3d 59 7a ae 3c df 96 fa 3c 9f 2f 14 bc
       0.03467455 0.021298574 0.030589519 -0.009044557
000250 48 11 c4 ba d8 8e 10 bd 39 e8 4d bd 73 8a fc 3c
       -0.0014958763 -0.035292476 -0.050270293 0.030827736
000260 fd ee e6 3c f0 c2 58 3d 74 16 8f bc be 27 dd bc
       0.02819013 0.052920282 -0.017466761 -0.02699649
000270 cf aa 31 bb 24 0e 68 bc a0 f5 99 bb 14 78 b1 3b
       -0.0027109866 -0.014163528 -0.0046984702 0.0054159258
000280 15 3c 91 3b 66 94 58 bc 98 30 ac bd c0 86 cf 3b
       0.004432211 -0.013218975 -0.08407706 0.006333202
000290 ae cf e1 3a 49 f2 3e bd f4 fb 31 bd 6f b9 ce 3b
       0.0017228031 -0.04661778 -0.04345317 0.0063087265
0002a0 5a 12 06 bb 4f 70 1b 3a fd 10 16 3d a1 49 46 bc
       -0.0020457716 0.0005929516 0.036637295 -0.012102515
0002b0 97 a6 5f 3c a4 a8 4e 3c d1 a6 ae bc 04 32 50 3c
       0.013650558 0.012613449 -0.021319779 0.012707237
0002c0 49 4f 8c bc 4e 9d 09 bc 16 b4 df 3b 1d 99 4e bc
       -0.01712765 -0.008399321 0.006826888 -0.012609747
0002d0 58 1b ab 3c 5b dc cb bb 7a 1a a1 3c d2 fc b1 3b
       0.020887062 -0.006221337 0.019665945 0.00543175
0002e0 0a a2 38 3c 2e 40 8c bb 8b 32 96 3d c9 36 a1 3c
       0.011269102 -0.0042801118 0.07333859 0.019679444
0002f0 e1 af 6d 3c 8e 44 5b 3c f8 35 0a bd 06 48 64 bc
       0.014507265 0.013383044 -0.033742875 -0.013933187
000300 8c 02 a1 bb 9e 12 03 3b 90 3b 31 3c ee 68 95 3b
       -0.0049136337 0.002000011 0.010817423 0.0045596277
000310 97 cf 89 3d 04 51 e5 3c 1a 71 71 bc 78 6d 7c ba
       0.06729048 0.027992733 -0.014736438 -0.0009629349
000320 89 0f 3f 3d cb e9 66 3d 4c 12 93 bc a4 b1 aa bc
       0.046645675 0.056375306 -0.01795306 -0.020836659
000330 66 47 18 3d 47 79 1b 3c 2c 7d 14 bd c0 0f 02 3d
       0.037177466 0.009489364 -0.036252186 0.0317533
000340 0c b9 d8 3c 77 01 8c 3c a8 f1 24 3d e1 7a ae 3c
       0.026455425 0.017090542 0.040269524 0.021298828
000350 17 10 01 bc 97 93 46 3d d1 76 4d bd 78 de 8f 3b
       -0.007877371 0.048480596 -0.05016214 0.004390534
000360 d7 02 92 3c 76 2f 22 bd 85 c8 4c bc 87 89 ec 3c
       0.01782362 -0.039596044 -0.012498979 0.028874172
000370 99 a7 23 3c 49 18 1d 3d 57 a2 aa 3a 18 a7 ae 3c
       0.009988689 0.03835324 0.0013018352 0.02131991
000380 42 dc 27 3d f3 3d 46 3c fe 8b 08 bb 11 d5 f2 3b
       0.04098154 0.012099731 -0.0020835395 0.0074106534
000390 47 69 0e bc 0a 7c 8b bc b0 e9 96 3d 42 d8 bd 3c
       -0.008692092 -0.01702692 0.07368791 0.023174409
0003a0 34 8a 03 3c ea d3 36 3d 3d 48 ba bc e3 ec 0b 3d
       0.008028556 0.04463569 -0.022739524 0.03416146
0003b0 4e 83 d4 3c 39 e5 03 bc b8 df 65 3c 10 82 1b 3c
       0.025941517 -0.008050256 0.0140303895 0.009491459
0003c0 0a 51 15 ba f2 fc b3 3d c1 4d 82 3c 13 a3 33 3d
       -0.00056959747 0.0878848 0.015906217 0.04385669
0003d0 f4 2d 9a 3c ef 88 ce 3d bb ad 85 bc bd 9e 12 3c
       0.01882074 0.10084712 -0.016318193 0.008948979
0003e0 70 91 10 bd 38 a6 98 3c 04 89 44 3b c4 2f 44 bc
       -0.03529495 0.018633947 0.0029988894 -0.011974279
0003f0 10 fa 5a bd 0b 8f 48 bc 40 dd 14 bc fa 8f 14 bd
       -0.053461134 -0.012241135 -0.009085953 -0.03627012

dense1.1.bias f4 [30]
000000 5b c9 4f bc 91 22 48 bc 9c 0e 07 bd dd 99 c3 bc
       -0.012682284 -0.0122152725 -0.032972917 -0.023877079
000010 7b 7a 71 3b 5e c5 91 3b cb 60 01 bd a2 90 26 bc
       0.0036846686 0.004448577 -0.03158645 -0.010166319
000020 28 9a e3 bb 49 b9 94 bc 15 6a 91 bc 35 6b ad bc
       -0.006945867 -0.018154757 -0.01775078 -0.021169284
000030 05 c7 2b bb 90 bf 08 bc 50 e1 a6 bc 15 28 3a 3c
       -0.0026211154 -0.008346453 -0.02037111 0.011362095
000040 cf bc e9 bc b0 fc e8 bc 6d 93 55 bc 01 45 9c bc
       -0.028532414 -0.028440803 -0.013035637 -0.019075872
000050 c6 64 69 bb 2e fb 45 3a f9 73 05 3b c8 d5 b6 3a
       -0.0035613044 0.00075523823 0.0020363315 0.001394921
000060 9e f1 1c 3c 6c 75 8d bc 18 e1 99 bc 79 61 b9 bc
       0.00957909 -0.017267905 -0.01878409 -0.022629486
000070 dd c6 9b bc cf ec a5 bc
       -0.019015724 -0.02025452

dense2.2.weight f4 [2, 30]
000000 70 56 3c 3d 39 29 73 bd 0d 04 19 3e 0d ef 7a bd
       0.04598087 -0.059365485 0.14942952 -0.061263133
000010 6f ea 53 be f0 5a 46 3c 0a 56 02 3e 42 7f 07 be
       -0.20694898 0.012106642 0.12728134 -0.13232139
000020 51 a7 84 3d 46 59 7c 3d 24 1d 38 be e8 0b bf bd
       0.064772256 0.061608575 -0.17979866 -0.09328443
000030 76 c8 0e 3e 10 a0 35 3d 93 4a c6 bd 9d ab af 3d
       0.13943657 0.0443421 -0.09682193 0.085776545
000040 2b a7 9d 3d fb 4d cf bd cb 06 05 be 44 28 80 3d
       0.076979004 -0.101222955 -0.12990873 0.0625768
000050 1d d6 11 3e f3 1b 4f bb ab 05 13 3e 7f 94 9b 3d
       0.14241834 -0.0031602352 0.14357631 0.07596683
000060 46 6d 2d bd 7e cd 9c 3d 0b 23 8f bd 38 7f 8f bd
       -0.04234054 0.07656382 -0.06989106 -0.07006687
000070 a0 8c 12 3e 25 e5 f5 3d 66 17 4f 3e 83 e3 6b 3d
       0.14311457 0.120065965 0.2022377 0.05759002
000080 06 58 13 3d e4 d8 db 3d 9f 8d 32 bd 94 18 fd bd
       0.035972618 0.10734728 -0.04359209 -0.123582035
000090 59 e7 9b 3d f0 60 89 bb 1f e0 90 3d 1e 88 e5 bd
       0.076124854 -0.004192464 0.07073998 -0.11207603
0000a0 b4 95 c6 3d d9 24 57 3e 5f a5 35 3d e4 80 d6 bd
       0.09696522 0.2101015 0.044347163 -0.10473803
0000b0 c8 55 a0 3d 6f c1 2a bd 2a 2e 12 3e 00 d9 06 3e
       0.078288615 -0.04168838 0.14275423 0.13168716
0000c0 09 4a 45 bc 3c 32 ce 3c 68 20 70 bd 4c 88 25 3e
       -0.012041577 0.025170438 -0.058624655 0.16165274
0000d0 24 35 b0 bc c6 88 7b bd f9 f5 30 bd a0 1e f7 bd
       -0.021509714 -0.061409734 -0.043203328 -0.12066388
0000e0 16 99 16 be 67 79 0f 3e 68 69 37 bd bb 3f cd bd
       -0.14706835 0.14011155 -0.044778258 -0.10021921

dense2.2.bias f4 [2]
000000 48 e7 5e 3c 10 54 62 3d
       0.013604946 0.05525595
