checkpoint_dir/CNN_3ways_special2_cross2/ADD_42.pth (torch, 693459 bytes, 4 tensors)

dense1.1.weight f4 [30, 5760]
00000000: 0c9d 59bc 58cc 8dbc 270c ee3a 2529 c5bc
00000010: c109 41bc e8ac 1e3c da2b 52bd ea2d 823a
00000020: 38b4 b3bb 9d1d 65bc 76c7 d7bc 0099 633b
00000030: 7a76 e53a ee95 bd39 6c65 fab9 cf41 a7bc
00000040: 522f 10bc bc4b feba 33dc 223c b992 7c3d
00000050: b05c 853c 0125 c63a 3b8a bfbc 1496 48bc
00000060: 8506 cf3b d6d2 dcbb 8e34 473b 0e58 9dbb
00000070: 0c71 113c 4249 43bc fa20 5a3c 522f ccbb
00000080: 0ecf 9f3c 9fd7 a83b 3ad4 093d 472e e63c
00000090: 7207 4b3b 440f 943c 6a43 ed3a 84ec 82bc
000000a0: 7538 9ebb 82f2 97bb 2266 2c3c c4dc 1abd
000000b0: ef87 9dbc 349b 6ebc 7b9d cabb 4504 0ebd
000000c0: c87c 7ebc b0f6 163d 9c6f 983a f663 0fbd
000000d0: cd23 903b 164d 0a3c d9d5 643c d06f 6dbc
000000e0: 80e5 1dbc 5070 58bc 8716 113c f49e 81ba
000000f0: fccd 01bd 9245 203d 7db4 cf3c 3fc6 1dbc
00000100: 0303 323d d81b eb3c 6b0f 593d 07cc f5bc
00000110: ff3e 36bd 164a d93c b77a 55bc fc5a 103b
00000120: c083 a8bc 2b2e 813c e923 fabc 71ae 8e3b
00000130: 8650 aa3b bc4a 293d 4635 1e3d 34a7 10bd
00000140: 475c 4e3c b1c7 81bc 1f18 163b cb02 703c
00000150: 4ddf 8eb9 202e a2bc 814c 08bc 5de4 f8bc
00000160: e248 eebb 9104 9dbc 6347 1b3d 5a4b 8e3c
00000170: 8df3 1b3c b037 e43c defc 5c3c f570 a6bc
00000180: cf9c 3e3d 4344 203c 198d e13a 08d1 da3b
00000190: 1adb 313d 939a 06bc 8bcb f43c 335f 4c3c
000001a0: 4231 b8bc 5820 1a3d c307 c53c 5e1e ff3c
000001b0: 6333 cfbb 276e aebb 5bfa 33bb 7b83 523b
000001c0: 61f2 10b7 7447 42bc d6ae 883b 8c3d a3bb
000001d0: 9cdf 07bc 3c30 b23c db9c d3bc 8901 12bc
000001e0: 145c f5bc 6739 c63c 4009 46bd 4b11 023b
000001f0: ea3f 823b 1cd4 573c c68b 0dbd 9aa7 b33c
00000200: 1b8e 73bc e130 96bc 3bda 4c3d a362 eebc
00000210: bed1 91bc c489 943c 2b13 b93c a48f f93c
00000220: 4f3e 1c3c 8981 10bc c3c6 f3bb dec3 9dbc
00000230: 31a0 593a 99fd 433c 1233 0abd 542e a23b
00000240: 9553 403c 8fcd 96bb 5b34 ffbc abce a5bc
00000250: 676f c4bc feec 3abc 94cf 1dbb 66f1 36bc
00000260: 1947 e4bc 8d05 273c 2ad6 503b bfc6 a9bc
00000270: 055f c0bc 1bc6 113c 44d0 5ebc 6d5a 03bb
00000280: 0bff 01bd 0712 de3b 6401 32bb 828e a7bc
00000290: 06af a7bc ba11 3dbb 07e3 1f3d 0a00 f2bc
000002a0: b52f 4ebb 946c 66ba 3c9d 983b 4d81 bdbc
000002b0: c655 a8bc 77a1 6cbc de8b ddbc 3fe7 b83c
000002c0: a199 94bc 6b8f ffbc 4194 aebc 0cc1 d6b8
000002d0: ddb2 73bc 9fa1 8dbb dac3 913a 076a 1339
000002e0: 790d 3dba dd5c 1d3c e6c9 c73b 370c 263d
000002f0: 144c e53c ff20 d23c f6f7 b13c 385f c0bb
00000300: 234e 06bd 46dc f73b a6e4 793d eb99 693b
00000310: 9950 d1bb 1317 d03b e653 973c 6b84 833b
00000320: 5764 963d b95a 653d 51dc 2c3d a98c 893d
00000330: bdf9 5dbc 60ef aebc 969c 0a3b 0647 b7bc
00000340: 9b51 833c 8cd5 703c e906 ce3b 6712 9abd
00000350: 4977 ca3b ddcd 8ebc e1ab ea3c 065d 233c
00000360: 5b45 65bd 959c 29bd 53d5 e93b 1ac7 873c
00000370: 2a35 83bc 8ca6 d33b cefd febc 449b c4bb
00000380: 4e70 193b a890 5abd 074a bc3c 4b5b 9b3d
00000390: 4bdf 80bc 84de a239 e629 e0ba 5a68 b6bb
000003a0: 3527 dc3c 2a49 b5bc 3230 853b 9370 253d
000003b0: 79ec 47bd c481 98bb 60c1 b83c b578 973d
000003c0: 0cee 4e3d 0285 513c e749 9c3c 52a9 2a3c
000003d0: 0846 3d3c 39b0 233d 7fb0 573d 3329 2f3c
000003e0: a4df 483a 8eb4 533d fb08 ee3c 6592 a83c
000003f0: 93e2 703c e5dc ddbc 9287 6fb9 a852 72ba
-0.013282072 -0.017309353 0.0018161581 -0.02406747 -0.011782111 0.009684779 -0.05131135 0.0009931896
-0.0054841302 -0.013984111 -0.026340228 0.0034728646 0.0017506622 0.00036160595 -0.0004775928 -0.020417122
-0.008800345 -0.0019401233 0.009940195 0.061663363 0.016279548 0.0015117229 -0.023381343 -0.012242813
0.006317916 -0.006739001 0.0030396315 -0.0048017567 0.00887705 -0.0119193215 0.013313526 -0.006231227
0.019507911 0.005152657 0.03364966 0.028098239 0.003097978 0.018073685 0.0018101756 -0.01598192
-0.0048285075 -0.0046370635 0.010522397 -0.037808195 -0.019229857 -0.0145633705 -0.006183324 -0.03467204
-0.01553268 0.036856353 0.0011629942 -0.03500744 0.004398799 0.00844123 0.013967001 -0.01449199
-0.009637237 -0.013210371 0.008855469 -0.0009889291 -0.031690583 0.039128847 0.025354618 -0.009629785
0.043459903 0.0286998 0.05299322 -0.030004514 -0.04449367 0.026524585 -0.013029746 0.0022026887
-0.020570636 0.015769085 -0.030534701 0.004354291 0.0051975874 0.041331038 0.038625024 -0.035315707
0.012595243 -0.01584229 0.002290256 0.014649103 -0.00027250723 -0.019797385 -0.008319021 -0.03038233
-0.007271872 -0.019167216 0.037909877 0.017369915 0.009518516 0.027858585 0.013488023 -0.020317534
0.046536263 0.0097819 0.0017208188 0.0066777505 0.043421842 -0.008215564 0.029882213 0.012473869
-0.022484425 0.0376285 0.024051553 0.03114241 -0.0063232644 -0.00532319 -0.0027462456 0.0032121825
-8.639502e-06 -0.011857856 0.0041712327 -0.004981702 -0.008293059 0.021751516 -0.02583163 -0.008911499
-0.029951133 0.024197293 -0.048348665 0.0019846733 0.0039749043 0.013173129 -0.034557126 0.021930505
-0.014865424 -0.018333854 0.05001281 -0.029099768 -0.017800208 0.018132098 0.022592148 0.030464001
0.00953634 -0.008819946 -0.0074394657 -0.019258436 0.00083017634 0.011962318 -0.03374011 0.0049493704
0.0117386775 -0.004602141 -0.031152895 -0.020240149 -0.023978902 -0.011409042 -0.0024080025 -0.011165952
-0.027865933 0.0101941945 0.0031865933 -0.020724652 -0.023482809 0.00889733 -0.013599459 -0.0020042912
-0.03173737 0.0067770514 -0.0027161473 -0.020453695 -0.0204692 -0.0028849677 0.03903487 -0.029541034
-0.003146154 -0.0008789983 0.0046574157 -0.023132944 -0.020548712 -0.014442793 -0.027044233 0.022571204
-0.018139662 -0.031196317 -0.021310927 -0.00010240273 -0.014874187 -0.0043222453 0.001112099 0.0001405851
-0.00072117854 0.00960466 0.006097066 0.040538993 0.027990378 0.0256505 0.021724682 -0.005870726
-0.03278936 0.0075641004 0.06100907 0.003564472 -0.006387782 0.006350407 0.018472623 0.004013588
0.07343357 0.055994723 0.042202298 0.06716282 -0.013548312 -0.021354377 0.0021150461 -0.022372734
0.016030123 0.014699351 0.006287445 -0.07523041 0.0061787707 -0.017432148 0.028646411 0.009970909
-0.055974346 -0.041409094 0.007136026 0.016574431 -0.016016562 0.006459063 -0.031126883 -0.0059999544
0.0023412886 -0.05336061 0.022984518 0.07585772 -0.015731474 0.00031064835 -0.001710233 -0.005566639
0.026874164 -0.022129614 0.004064583 0.040390562 -0.048809502 -0.004654141 0.022553146 0.0739607
0.050519988 0.012788059 0.019078208 0.010416346 0.011552341 0.03996298 0.052658554 0.010690975
0.00076627196 0.051685862 0.029057017 0.020577619 0.014702457 -0.02708287 -0.0002284332 -0.0009243884

dense1.1.bias f4 [30]
00000000: df5a 31bb 27cc 253b 2f5c f539 0c02 323c
00000010: b53e 49bc 10ff 8dbb f6bd debb 2291 b6bc
00000020: 9d64 5bbc 30e9 67bb 4e33 a1bb ec6b 06bc
00000030: b75c f9bc a608 a1bc ea3f 29bc 5c68 4bbc
00000040: 3a1f 6bbc ab51 91bc 4b0b f83a 453d 11bd
00000050: 4198 abbb 3ec3 2cbc 4078 7fbc ae2a 00bd
00000060: 728a f4bc 4674 f43b a804 29bb bd3e 7abc
00000070: 09ca 16bc 3666 72bc
-0.002706222 0.0025298686 0.00046798724 0.010864746 -0.012283017 -0.0043333843 -0.0067975475 -0.022286002
-0.013390687 -0.0035386793 -0.004919446 -0.0082044415 -0.030439718 -0.019657444 -0.01033018 -0.012415018
-0.014350707 -0.017739138 0.0018924264 -0.03545882 -0.005236656 -0.010544596 -0.015592635 -0.031290703
-0.029851172 0.00746015 -0.002579013 -0.015273747 -0.009203442 -0.014794877

dense2.2.weight f4 [2, 30]
00000000: f643 173e 9333 02bd 4bec 4dbe 9608 463e
00000010: 73b8 51be bbad 093e b916 023e b0d4 da3d
00000020: 41af d9bd c2d2 84bd 261b e4bb 1e82 a83d
00000030: 3b68 4dbe dd86 62bd 2896 0d3c 680c 30bd
00000040: 5940 67be 4534 e6bd 8685 6e3d 5437 903d
00000050: 5adf 973d 119d 8cbd 8407 7bbd ad1d 03bd
00000060: a922 27bd a09a 0c3e f481 bc3d 5d94 acbd
00000070: ce5d e5bd a5c6 833d 5023 7ebd c930 b33d
00000080: 8abc aabd 90e1 ba3d 61f1 adbd 1d1c 773b
00000090: cfba 2ebd 8e90 fbbd 827d 143c 643d 65ba
000000a0: 85cd 12be 8ef5 b7bd 9b65 253e fa70 073e
000000b0: c6b8 463e 8f5f 083e fe7e d6bd 9088 c43c
000000c0: 286e e5bd 6093 21be 6439 b9bd a621 e73b
000000d0: 7d41 813d a21c e33d 06de e93d 1e45 a03c
000000e0: 0e9d 60bd 669f 6b3d 6b7f 233d 763d 5c3e
0.14772019 -0.031787466 -0.2010967 0.19339213 -0.20480518 0.13445179 0.1270398 0.10685098
-0.1062913 -0.06485511 -0.006961244 0.08227943 -0.20059292 -0.055304397 0.008641757 -0.04298058
-0.2258314 -0.11240438 0.058232807 0.07041803 0.07415648 -0.068658955 -0.061286464 -0.032010723
-0.04080454 0.1373086 0.09204474 -0.084267356 -0.111995324 0.06434373 -0.062045395 0.087495394
-0.08336742 0.09125054 -0.08493305 0.0037705966 -0.042658623 -0.12283431 0.0090631265 -0.00087448047
-0.14336212 -0.08982383 0.1615204 0.13226691 0.19406423 0.13317703 -0.104734406 0.0239909
-0.11202651 -0.15778875 -0.090441495 0.0070535718 0.06311319 0.11089446 0.11419301 0.019564208
-0.05483728 0.05752506 0.039916437 0.2150782

dense2.2.bias f4 [2]
00000000: 6e00 3b3e 8dd4 813d
0.18261883 0.06339369
