checkpoint_dir/CNN_3ways_special2_cross0/ADD_34.pth (torch, 693395 bytes, 4 tensors)

dense1.1.weight f4 [30, 5760]
0	0x3ab3116c	0.0013661808
1	0xbc279254	-0.010227758
2	0xbc6cc81f	-0.014452009
3	0xbc815535	-0.0157877
4	0xbd0157af	-0.031577762
5	0xbcbef60a	-0.02331068
6	0xbbc9d608	-0.0061595477
7	0xbd010910	-0.031502783
8	0xbceba462	-0.028764907
9	0xbc154b0b	-0.00911213
10	0xbcc9b846	-0.024624001
11	0x3c3c141d	0.011479405
12	0xbc953baa	-0.018216927
13	0xbbcb3d79	-0.0062023965
14	0xbcd0f77a	-0.025508631
15	0xbcc9f4b3	-0.024652814
16	0x3b8b832b	0.00425758
17	0xbd010b42	-0.031504877
18	0xbd3e262d	-0.046423126
19	0xbc464561	-0.012101502
20	0xbba270c5	-0.004957291
21	0x3bb92a30	0.005650781
22	0xbc77d9f9	-0.015127652
23	0xbce2a7f0	-0.02766797
24	0xbc6b9b85	-0.01438034
25	0x3d19a71a	0.037512876
26	0xbb030067	-0.0019989253
27	0xbbf7ea2a	-0.0075657563
28	0xbc60d3d2	-0.013722377
29	0xbad089c6	-0.00159102
30	0x3c5c2906	0.013437515
31	0xbc3a11cc	-0.011356782
32	0xbc976fef	-0.018485991
33	0x3c8575d4	0.016291536
34	0xbcb0bc75	-0.021574238
35	0xbcbf6d50	-0.023367554
36	0xbb0362c4	-0.0020047883
37	0xbc4edec7	-0.012626356
38	0xbd1cc578	-0.03827426
39	0xba2bfdcf	-0.0006560953
40	0xbcafa35e	-0.021440204
41	0xba3c161d	-0.0007174926
42	0xbc396bf5	-0.011317243
43	0xbc8bbb13	-0.017056977
44	0xbcf6eec4	-0.03014315
45	0x3b82f3f8	0.0039963685
46	0xbc1d241c	-0.009591129
47	0xbc788b32	-0.0151699055
48	0xbcb8bcae	-0.022550907
49	0x3cd5a50d	0.026079679
50	0x3d63dfc5	0.055633325
51	0xbd193d32	-0.037411876
52	0x3c0cf418	0.008603118
53	0xbbfe1a4a	-0.0077545987
54	0xbddcc85e	-0.107804045
55	0x3cb3d9be	0.021954414
56	0x3a0963ab	0.0005240987
57	0xbd2c0c41	-0.042003874
58	0x3c369386	0.011143571
59	0x3c968738	0.018375024
60	0xba002c8d	-0.0004889451
61	0x3c0fa74b	0.008767913
62	0xbc83dba7	-0.01609595
63	0xbc156dfe	-0.009120462
64	0xbd0ee8e0	-0.034890056
65	0x3c89b298	0.016808793
66	0xbbae675f	-0.0053223814
67	0x3c327c77	0.010893933
68	0xb95eeec7	-0.00021260521
69	0x3c80b335	0.015710453
70	0xbcccaa7a	-0.024983633
71	0xbc4e3429	-0.012585678
72	0x3c8c264a	0.017108101
73	0xbdd2970b	-0.102827154
74	0x3b9fa1f9	0.0048716036
75	0x3d0456b9	0.032309268
76	0x3b87a6bb	0.004139749
77	0xbdf185fa	-0.11793132
78	0x3d54c9e9	0.05195037
79	0xbc016671	-0.007897959
80	0xbc8cb8b5	-0.017177919
81	0xbb9ed3a3	-0.0048470064
82	0xbcb645f1	-0.022250148
83	0x3b986899	0.004651141
84	0xbb6c2367	-0.0036031844
85	0xbd493464	-0.04912223
86	0x3add6a16	0.0016892578
87	0xba4a18d8	-0.00077093905
88	0xbc1e4456	-0.009659847
89	0xbcf6213e	-0.030045148
90	0x3bb89dcf	0.0056340466
91	0xbbec0856	-0.007203142
92	0xbc6cd49f	-0.01445499
93	0xbb83c457	-0.0040212083
94	0xbd048045	-0.03234889
95	0xbc17223d	-0.009224472
96	0x3cf429ec	0.029805146
97	0x39d31321	0.00040259308
98	0x3b385fcd	0.0028133274
99	0xbad54a0a	-0.0016272676
100	0x3c5c691d	0.013452795
101	0xbd1423be	-0.0361669
102	0xbcacf359	-0.021112131
103	0xbc873269	-0.01650353
104	0xbbc247ea	-0.005928983
105	0xbcf1972b	-0.029491028
106	0xbb2e1c4b	-0.0026567157
107	0xbccd7fc3	-0.025085336
108	0xbb45610b	-0.0030117657
109	0x3a9f8ac2	0.001217209
110	0xbc418a14	-0.011812706
111	0xbb5ff731	-0.0034174437
112	0xb9a7b722	-0.00031989167
113	0x3ceaa8cb	0.02864494
114	0xbc80cc40	-0.015722394
115	0xbb1bd7dd	-0.0023779788
116	0x39dcffc8	0.00042152242
117	0xbc6f7b16	-0.014616748
118	0xbcd48820	-0.025943816
119	0x3b83d607	0.004023317
120	0xbbf51704	-0.0074795503
121	0x3acee963	0.0015786107
122	0xbc12b514	-0.008954305
123	0xbc96f186	-0.018425714
124	0xb8d32b20	-0.00010069297
125	0x3b9d6534	0.004803324
126	0xbb93f525	-0.0045153075
127	0xbbfbbe5d	-0.007682605
128	0xbceeba3a	-0.029141534
129	0x3c834d9f	0.016028224
130	0x3c622ec6	0.013805097
131	0xbbd43e34	-0.0064771418
132	0x3c88d7c8	0.016704455
133	0xbca7c9a4	-0.020481892
134	0x3d0b7460	0.03404653
135	0x3cf4b191	0.029869827
136	0x3b84dafc	0.0040544253
137	0xbd142ea3	-0.03617729
138	0x3c78d456	0.015187344
139	0x3be67b57	0.007033746
140	0xbce3c3b8	-0.027803287
141	0xbcca81a5	-0.024720022
142	0xbcb5e4e1	-0.022203865
143	0xbcecd1e6	-0.028908681
144	0x3b84f362	0.004057334
145	0xbc660174	-0.014038432
146	0x3c129df5	0.008948793
147	0xbc9dc769	-0.019260125
148	0xbc9f7799	-0.019466208
149	0xbd63db59	-0.055629108
150	0x3bedd324	0.007257836
151	0xbc7f7cd2	-0.015593724
152	0xbd42141b	-0.047382455
153	0xbc06393c	-0.008192357
154	0xbd05707f	-0.032577988
155	0xbc253d69	-0.010085442
156	0x3b633e57	0.0034674609
157	0xbcc4b30f	-0.024011163
158	0xbcd00703	-0.025393968
159	0x3b56213c	0.0032673618
160	0x3af18269	0.0018425706
161	0x3c59b4cb	0.013287733
162	0xbc42a4db	-0.011880125
163	0x3b9e7445	0.0048356378
164	0xbc5a7dd0	-0.01333566
165	0xbd0f9a4f	-0.03505927
166	0xbcbc7e2b	-0.02300938
167	0x3a801798	0.0009772656
168	0xbc44cb89	-0.012011417
169	0xbbcc74c0	-0.0062395036
170	0xbc195bde	-0.009360282
171	0xbc1bc7c9	-0.009508082
172	0xbd0726b5	-0.0329959
173	0xbadf3045	-0.0017027935
174	0x3c488423	0.012238535
175	0xbd1728a7	-0.036904003
176	0x3a218189	0.0006160965
177	0xbd2817da	-0.04103837
178	0xbb96eb77	-0.0046057063
179	0xbb3208be	-0.0027165855
180	0x3bae4da2	0.005319313
181	0xbbf4ef89	-0.007474844
182	0xbca0b9db	-0.019619873
183	0x3bad5c23	0.0052905246
184	0xbc8e86c5	-0.017398247
185	0xbc3663b5	-0.01113217
186	0xbcc90449	-0.024538176
187	0x3c5fa959	0.0136512155
188	0xbca73d1f	-0.020414887
189	0xbbe542e4	-0.0069964994
190	0xbc9b3c2e	-0.018949594
191	0x3d29ccea	0.041455187
192	0x3c2198ff	0.009863137
193	0xbb2f9ab0	-0.0026795082
194	0x3b18f3bb	0.0023338634
195	0x3c13ae00	0.009013653
196	0x3c40fa1f	0.0117783835
197	0xbc184789	-0.009294399
198	0xbd838d1e	-0.064234
199	0xbb73a754	-0.0037178593
200	0x3c915547	0.017740859
201	0xbba126e8	-0.004917968
202	0x3d23e157	0.040009823
203	0xbc1d73d3	-0.009610134
204	0xbbd50312	-0.00650061
205	0x3c7ccb76	0.015429368
206	0x3c867894	0.016414918
207	0x3bc2dac1	0.0059464877
208	0x3c564686	0.013078338
209	0x3b1f9acd	0.0024353743
210	0xbd89fece	-0.06738053
211	0xbc2636c4	-0.010144893
212	0x3d00a2b3	0.031405162
213	0x3d3230d8	0.043503612
214	0x3b4a2ff7	0.0030851343
215	0x3cfff0a6	0.03124268
216	0xbc4663e5	-0.012108778
217	0xbb292247	-0.0025807784
218	0xb9dc1656	-0.00041978311
219	0xbcf8f27b	-0.030389061
220	0xbc40dc1f	-0.011771231
221	0x3bbbbe4b	0.005729472
222	0xbd132eea	-0.035933413
223	0xbc3700f1	-0.011169658
224	0xbb846775	-0.0040406534
225	0xbcc3c540	-0.023897767
226	0x3c8af134	0.016960718
227	0xbcb1fbae	-0.021726456
228	0xb9e39b8b	-0.00043412703
229	0xb9acff04	-0.00032996398
230	0xbb29fb0d	-0.0025936991
231	0xbba3970f	-0.004992373
232	0xbc4ac196	-0.012375256
233	0x3c3638d8	0.011121951
234	0xbc3193cc	-0.01083846
235	0xbcfa5659	-0.030558752
236	0xbb9c5b08	-0.004771594
237	0xbc3414b1	-0.010991261
238	0x3ba57db1	0.005050384
239	0xbc2eb33a	-0.010662848
240	0x3ba9966c	0.0051754024
241	0xbc095bc0	-0.008383691
242	0xbca4a3c7	-0.020097626
243	0xbad9a825	-0.0016605897
244	0xbd2ce7a6	-0.042213105
245	0xbb7f47a9	-0.0038952625
246	0xbc414f23	-0.011798653
247	0xbc78cb63	-0.01518521
248	0xbc13ab90	-0.009013072
249	0xbb823f67	-0.0039748433
250	0x3bd3185e	0.006442114
251	0xbcd66f5e	-0.02617615
252	0xbaefcd1e	-0.0018295383
253	0x3c1b3125	0.009472166
254	0xbc5e9c73	-0.013587105
255	0xbc8d929d	-0.017281825

dense1.1.bias f4 [30]
0	0xbbab78ec	-0.005232921
1	0xbc1f5114	-0.00972392
2	0xbafb657b	-0.0019180024
3	0xbc477ed8	-0.012176238
4	0x3ac85f80	0.001528725
5	0xbc29e101	-0.0103685865
6	0x3b456c9a	0.0030124546
7	0xbc67df8c	-0.014152419
8	0x3c82631c	0.0159164
9	0xbcb38ebb	-0.021918645
10	0x3b448ec1	0.0029992315
11	0xbc1be6ba	-0.009515459
12	0x3bcc5192	0.00623531
13	0xbb8f2fb2	-0.0043696994
14	0x3ba4feaa	0.005035241
15	0xbc43cdd1	-0.011950926
16	0xbc44ebf3	-0.012019145
17	0xbc9efab4	-0.019406654
18	0xbc965eba	-0.018355716
19	0xb8ebbda8	-0.000112409994
20	0xbc5197f9	-0.012792581
21	0xbbe5d783	-0.0070142164
22	0xb9cd3d1d	-0.0003914618
23	0xbc389b00	-0.011267424
24	0x3b15479b	0.0022778276
25	0x3b1a7d58	0.0023573246
26	0xbc52e3d5	-0.012871702
27	0xba99d214	-0.0011735582
28	0xbc76a115	-0.015053053
29	0xbcd2d46a	-0.025736053

dense2.2.weight f4 [2, 30]
0	0xbe10da0c	-0.14145678
1	0xbbb429e5	-0.0054981583
2	0x3e4c60e7	0.1995884
3	0xbdc652d0	-0.09683764
4	0x3d4a7ff8	0.049438447
5	0xbd361670	-0.04445499
6	0xbdeee50b	-0.1166478
7	0xbc46a78d	-0.012124908
8	0x3d003130	0.03129691
9	0x3d12baed	0.035822798
10	0x3cbc3c06	0.02297784
11	0xbd48b462	-0.04900015
12	0x3e5a07ad	0.2129199
13	0x3d92a1fc	0.07159802
14	0xbe333a3d	-0.17502685
15	0x3c96372e	0.018336859
16	0x3b0866a8	0.002081314
17	0xbe064d50	-0.1311543
18	0x3dc6e5d2	0.097118035
19	0x3d8a4f3f	0.06753396
20	0x3d446e2d	0.047956634
21	0xbdca38a2	-0.09874083
22	0x3ce48ff2	0.02790067
23	0xbe44bb3f	-0.19212054
24	0xbd3c291d	-0.045937646
25	0x3d1573cc	0.036487386
26	0xbe0cdbac	-0.13755673
27	0x3e6f7c60	0.23387289
28	0xbe4f9852	-0.2027295
29	0xbe109a86	-0.14121446
30	0x3e046f2b	0.12933032
31	0xbdc64e35	-0.096828856
32	0x3c2daf1b	0.01060083
33	0x3cf7224a	0.030167717
34	0xbd517581	-0.05113745
35	0x3dd4f411	0.103981145
36	0xbd99f133	-0.07516708
37	0xbe0d7be2	-0.13816789
38	0x3e242594	0.1602996
39	0x3e125cee	0.14293262
40	0xbd9fd4d4	-0.078042656
41	0x3e085bb4	0.13316232
42	0x3d83a277	0.06427472
43	0xbbbce123	-0.005764143
44	0x3da5a775	0.080885805
45	0x3c70a562	0.014687868
46	0x3e184fd7	0.14874206
47	0x3e17bb68	0.14817584
48	0xbde79743	-0.11308148
49	0x3e49dc44	0.19712931
50	0x3e4eeff5	0.20208724
51	0x3e2ac44a	0.16676441
52	0xbe1d1d74	-0.15343267
53	0xbcee84e5	-0.029116103
54	0x3e2adf6d	0.16686793
55	0x3e5bb332	0.21455076
56	0x3d28b045	0.04118373
57	0x3d9aa2d8	0.07550591
58	0x3c605fd8	0.013694726
59	0x3d672fee	0.056442194

dense2.2.bias f4 [2]
0	0x3d254e85	0.040358085
1	0x3dba1944	0.0908685
