checkpoint_dir/CNN_3ways_special1_cross4/ADD_66.pth (torch, 693395 bytes, 4 tensors)

dense1.1.weight f4 [30, 5760]
00000000: 03d7 c7bb 0a94 46bc 8f72 eabc 0420 713d
00000010: 72f7 823d 49b1 77bd a73a a63c cb7b c13c
00000020: 0539 063d a3bf 383c 977d 743d c863 ca3b
00000030: b21f 7c3a 22ce 843d dddb 7ebb 7448 c43b
00000040: 48b0 41bb 8be0 fd3b 8794 173d 43e0 303d
00000050: 616b 783b aad5 023c 37d1 763d c2c8 153d
00000060: e0f7 263b 5153 2abb a1c6 eebc 494e 18bb
00000070: 24f2 5cbd b12c 81bd e541 edba f3d0 9dbd
00000080: 5a5a 053c 93c9 8ebb 797d 83ba ecbc b2bc
00000090: 6811 023c 2edd 0a3b 6eb5 63bc f0e2 f0bc
000000a0: fb24 a3bc 7dca da3b 65ef 52bd c536 1e3c
000000b0: b685 a1bc 9eff cd3c e372 593d 0866 03bd
000000c0: bd4d 803c b045 4fba 0d85 bcbc 1065 b3bc
000000d0: f599 24bd 6ab2 d23c d0f2 65bd 00a1 b5bb
000000e0: 8a7e 783c bd11 8ebd 093b 6c3c 8e3d 8aba
000000f0: 838b 443c 0ebb ddbc d8cc e0bc 9b88 04bd
00000100: 37f6 1c3a 7c1f 6b3c 9cd9 a6bb 8cf9 f23b
00000110: 2bd9 3a3c fad1 16bc c9e9 54bc 8f8e fd3b
00000120: 33ab bcb8 3200 983c 49c2 963c 0cdc 12bd
00000130: 815e a03c 0564 12bd 6635 38bc 44b7 81bb
00000140: d501 8f3d 11b3 1abc b2b7 96bc 8f50 9ebc
00000150: 0d5b 8e3c 097d 5b3c ad9e f8ba cb2c 1f3b
00000160: 08ad efbb facc 23bc b490 86bc 3805 bc3b
00000170: d572 d13a 3e4b b1bc 47fa 6cbc 75ce 12bd
00000180: c6f0 ad3c 8b10 8e3c 9da5 3e3d 6e1c 84bc
00000190: 17b2 d43b 2793 71bb cccf 91bc f44c 1fbd
000001a0: 78b0 28bd f4be 46bb 5d40 133c e175 babb
000001b0: 3894 0fbb 3882 443b be64 bfbb 8652 e0bc
000001c0: 2985 07bc 43c0 66bd 2792 57bd 5417 ab3c
000001d0: 0aeb f1bb 101a 09bd 70bc 8d3c b9bd 2d3b
000001e0: c1f6 97bc 20ad 003c b664 c43c f22d 74bc
000001f0: e313 d9bb a0b3 1cbc 9fc3 10bc e082 b2bc
00000200: 6638 cfbb 5243 31bd 97c2 cbbc 9f23 64bc
00000210: 875d c6bc a1ed abbc 1a40 d8b9 c6e9 423d
00000220: 0fea fb3b ac96 7cbc 0c91 be3c 04ad bbbc
00000230: 2fca 0abc dd96 803b 79d3 9ebc 1be6 cfbc
00000240: 1b93 133d 947f 0abe bca6 bdbc cb1b e3bc
00000250: 2ffc b93c bc94 20bc 99bb 7ebc c7d7 763d
00000260: 9d0c f6bc ed59 163c 9f8d 3cbc 4d31 88bc
00000270: ff98 383a 4324 4d3b 5d6c dfbb 1735 f3bb
00000280: ca6c 82bc 0386 e7bc 6616 1dbd 121f b7bc
00000290: 0de0 aabc b861 9abc ba6c 0a3a f25f 67bc
000002a0: 818c 313d facb c8bb b7e6 e4bc 3f47 0b3c
000002b0: da1c 8bbc 5431 68bd 95f7 253d 963a eabc
000002c0: 2d02 183c 38cb a3bb e77d 8a3d 7ade f4bb
000002d0: 698c cdbc f281 be3b ad5f e8bb f6e9 a2bc
000002e0: e6a8 79bc 44d4 7bbc 02de f0bc 1fe2 d7bc
000002f0: 4dab 9b3b bfcd bc3a fe87 1b3c 0a48 bf3b
00000300: 681a c8bb c98a aabb ce09 1dbc 1168 f2bc
00000310: cb79 d5bc d41f 8cbc bdf7 253a 248b 70bc
00000320: 15a7 4fbc 85f0 16bb 0c57 6a3d e5ac af3d
00000330: 548d 8bbb 2ec8 883c 083b 9bbb 3ec4 51bc
00000340: c6ad 933c 5049 c4bb 3029 a2bc 05f4 4dbd
00000350: 279f 813d cabe f0bb 5efa 083d b9f8 a0ba
00000360: 8916 39bc 461e 32bc 41c6 483c 2184 1bbd
00000370: 1f9b 07bd a4fc 62bc 0f88 aabc 7717 5c3b
00000380: 8ce5 f8ba eae8 9bbc ee14 db3c 161e 89bb
00000390: 319d a8bc 5f1b 0ebd da22 a6bc 9465 d43b
000003a0: edf4 1bbd a609 d33c c485 1dbd ecba 67bb
000003b0: 08b1 38bc 9859 9f3a 7a59 45bc ff8b b5ba
000003c0: 6d69 f5b9 b611 173c 425c f6bb c279 80bc
000003d0: fc42 7d3c 6298 af3b 70a7 b4bc 5544 d53c
000003e0: f6ef 8ebc 5627 1c3c 3544 72bc 9d40 41bc
000003f0: c3da 48bc 3612 ccbc 4fee 0ebd 2fd0 b2bc
-0.0060986294 -0.012120256 -0.028619079 0.058868423 0.06394853 -0.060471807 0.02029164 0.0236186
0.03276922 0.0112761585 0.059690084 0.0061764456 0.000961776 0.06484629 -0.0038888373 0.0059900824
-0.0029554535 0.007747715 0.03700688 0.043182623 0.00379058 0.007985512 0.060258117 0.03656841
0.0025477335 -0.0025989602 -0.029147448 -0.002324002 -0.05394186 -0.06307352 -0.0018101303 -0.077058695
0.008139217 -0.0043575256 -0.0010031901 -0.0218186 0.00793872 0.0021188962 -0.013898237 -0.029405087
-0.019915095 0.0066769705 -0.051497836 0.009656613 -0.019717079 0.025146302 0.05308808 -0.032079726
0.015662069 -0.00079068076 -0.023012662 -0.021898776 -0.040185887 0.02571984 -0.056139767 -0.0055428743
0.015166888 -0.06936977 0.014418372 -0.0010546909 0.011996153 -0.027066734 -0.027441427 -0.03235684
0.00059876166 0.014350768 -0.005091859 0.007415002 0.011404316 -0.009205336 -0.012995192 0.0077379416
-8.996427e-05 0.01855478 0.01840319 -0.035854384 0.019576313 -0.035739917 -0.0112432 -0.0039586145
0.06982771 -0.009442107 -0.01839814 -0.019325523 0.0173774 0.01339651 -0.0018968188 0.0024288173
-0.007314328 -0.009997601 -0.016426422 0.005737927 0.0015979657 -0.021642324 -0.014463968 -0.035841424
0.021232974 0.017341873 0.04654466 -0.016126838 0.0064909565 -0.0036861391 -0.01779928 -0.038891748
-0.04118392 -0.003032622 0.008987513 -0.005690322 -0.0021908414 0.0029984843 -0.005840867 -0.0273831
-0.008271494 -0.0563357 -0.052629616 0.020885147 -0.007382755 -0.03347212 0.017301768 0.0026510789
-0.018550279 0.007853776 0.023973804 -0.014903532 -0.006624685 -0.00956431 -0.008835702 -0.021790922
-0.006323862 -0.043277092 -0.024873061 -0.013924508 -0.02421452 -0.020987334 -0.0004124649 0.047586225
0.007687814 -0.015416782 0.023262523 -0.022909649 -0.008471056 0.0039242343 -0.019387947 -0.025378278
0.036028963 -0.1352523 -0.023150794 -0.027723214 0.022703258 -0.009801086 -0.015547656 0.060264375
-0.030035311 0.009176713 -0.0115083745 -0.016625071 0.0007041841 0.0031302131 -0.006818338 -0.0074221003
-0.015921015 -0.028262144 -0.03835144 -0.022353683 -0.020858789 -0.018845424 0.0005280484 -0.014121996
0.043346886 -0.0061278315 -0.027942045 0.008500873 -0.016981531 -0.056687668 0.040519316 -0.02859239
0.0092778625 -0.004998591 0.06762295 -0.0074728103 -0.025091367 0.0058138305 -0.0070914836 -0.019886952
-0.015238022 -0.015370432 -0.029402737 -0.02635294 0.0047506453 0.0014404579 0.009492872 0.005837445
-0.0061066635 -0.0052045328 -0.009584857 -0.029590638 -0.026059052 -0.01710502 0.00063311664 -0.014681611
-0.012674113 -0.0023031544 0.05721192 0.08577899 -0.004258791 0.016697016 -0.0047372617 -0.012803135
0.018027198 -0.005990185 -0.01979503 -0.050281543 0.06329184 -0.0073469626 0.033441894 -0.0012281156
-0.011296877 -0.010871476 0.012254299 -0.037967805 -0.03310692 -0.0138541795 -0.02081683 0.0033583322
-0.0018989309 -0.01903196 0.026743378 -0.0041844947 -0.020582767 -0.03469407 -0.02028029 0.0064818356
-0.038075376 0.025761437 -0.038457647 -0.0035359217 -0.011272676 0.0012157438 -0.012045259 -0.0013850926
-0.0004680859 0.009220531 -0.007518322 -0.015683059 0.015457865 0.0053587416 -0.022052497 0.02603356
-0.017448407 0.009530863 -0.01478677 -0.01179519 -0.012259188 -0.024911027 -0.034895238 -0.021827785

dense1.1.bias f4 [30]
00000000: ae38 88bc e284 7bbb a6f1 22bd dedf 21bc
00000010: 26e9 d1bc 5098 e2bc 3996 71bc 333f 67bc
00000020: 3d86 53bb 4c88 33bc 50d9 19b9 adbb dbbc
00000030: fa6b a4bc 8b44 08bd a58d 9abb 464d 333b
00000040: c511 1dbc f058 0cbd dbdb 19bb 2bc7 b6bc
00000050: 528d 31bc 97db e4bc c0a3 fabc a615 803c
00000060: 46bf 65bc bb3e 323c 83fe 9e3a 562a 303a
00000070: 0e57 84bb d703 bdbc
-0.01662859 -0.0038378765 -0.039781235 -0.009880034 -0.02562387 -0.027660519 -0.0147452885 -0.014114189
-0.0032276057 -0.010957789 -0.00014672172 -0.02682289 -0.020071018 -0.033268493 -0.0047165924 0.002735929
-0.009586756 -0.034264505 -0.0023476991 -0.022311768 -0.010836916 -0.02793674 -0.03059566 0.015635323
-0.014022654 0.010879214 0.0012130294 0.0006720176 -0.004038698 -0.02307312

dense2.2.weight f4 [2, 30]
00000000: 0eec e93d 994e 1f3e b349 13be 6d98 88bd
00000010: 5579 c13d 2aad 36be 5b7d 0fbe 101d 303e
00000020: 9e41 90bd b50b afbc 4219 033e 9757 2dbe
00000030: 8dde 1b3e c41d 0abe 0a40 b63d ef47 8c3d
00000040: b1a8 513e 4a33 f73d a6e8 923d 88c8 583e
00000050: a637 05be 6a6b 35be 442e 303d fc79 553e
00000060: c123 e83d d5ff ba3c a0df 753d f5c0 a83c
00000070: a70c 9bbd 873f 5abd b509 d13a 251a 5f3c
00000080: 7ba0 363e 7804 143e e0e0 4bbd 1e7c f8bd
00000090: 1de2 e03c 3e8a 61bd b160 a03d 8e9b fa3d
000000a0: 8fdf f33d 1183 a3bc c73d d7bc 7fdd 233e
000000b0: e61d b6bd 9688 febd 8d8a b4bd 4675 f7bd
000000c0: 09ab d1bd 90ae f3bd bfb3 f9bd 5bce 473e
000000d0: d363 17be 67eb bb3d a7be 743e 830e c6bd
000000e0: 12d1 86bd 42ee 0439 297e d33d 0043 f73d
0.11421977 0.15557326 -0.14383583 -0.06669698 0.094469704 -0.17839494 -0.14012663 0.17198586
-0.070437655 -0.021367887 0.12802604 -0.16927944 0.15221615 -0.13487917 0.08898933 0.06849658
0.20474507 0.120703295 0.071732804 0.21170247 -0.1300951 -0.17716756 0.043012872 0.20847315
0.113349445 0.022827068 0.06002772 0.020599822 -0.075707726 -0.05328324 0.0015948327 0.013617073
0.17834656 0.1445483 -0.049775004 -0.121330485 0.02745157 -0.05506348 0.078309424 0.12236701
0.11907875 -0.019959958 -0.026274575 0.16002463 -0.088924214 -0.124283955 -0.08815489 -0.12082915
-0.102377005 -0.118985295 -0.12192487 0.19512312 -0.14784174 0.09175759 0.23900853 -0.09670737
-0.06582846 0.00012677259 0.103267975 0.12073326

dense2.2.bias f4 [2]
00000000: 52bf 2bbd f94e dc3b
-0.041930504 0.0067232815
