checkpoint_dir/CNN_3ways_special1_cross2/ADD_55.pth (torch, 693459 bytes, 4 tensors)

dense1.1.weight f4 [30, 5760]
000000 3c e1 02 bd 82 64 85 bc 1a e5 68 bc d1 d4 e5 bb
       -0.03195308 -0.016283277 -0.014214778 -0.007013895
000010 2a 94 ab 3c c5 c7 49 bd 6d 56 c2 bc 0a 27 63 bd
       0.020944674 -0.04926278 -0.023722852 -0.055457152
000020 76 3e cb bc d5 59 8a bc af 6f 52 bd 66 3c 47 bd
       -0.024810057 -0.016888538 -0.05137604 -0.048641585
000030 5e 31 f7 ba 7f 48 17 3b ea f8 55 bc fb c3 bd bc
       -0.0018859317 0.0023083983 -0.013059834 -0.02316474
000040 7d 5b 2f bb 29 2c b7 bc 20 99 73 3b 39 36 06 3c
       -0.0026757412 -0.022359924 0.0037170127 0.008191639
000050 30 0a a7 bb f9 b7 ef 3b c3 60 9b 3b a5 5e 09 bd
       -0.00509765 0.0073156324 0.0047417595 -0.033537526
000060 26 64 09 bd 18 58 95 bc e1 b4 6b bc 4e f8 43 bc
       -0.033542775 -0.018230483 -0.014386387 -0.011961056
000070 6f 59 76 bc b0 8b 28 bd 58 da 38 bc fe 1d c9 bc
       -0.015035971 -0.04114884 -0.011282526 -0.024550434
000080 7a 09 c9 bc 43 54 03 3c af 50 15 bc af fd 7f bc
       -0.024540652 0.008015695 -0.009113475 -0.015624448
000090 45 37 3e bc b3 14 54 bc 10 49 67 bc 4f 71 7a 39
       -0.011609857 -0.012944388 -0.014116541 0.00023884069
0000a0 56 4e 8b 3a 7d 74 66 bc 99 88 1c bc 70 6a c3 3b
       0.0010628204 -0.014065859 -0.009554052 0.005963616
0000b0 87 42 95 bc 05 82 c2 bc e2 a6 d5 bc 63 e6 58 bb
       -0.0182202 -0.023743639 -0.026080552 -0.0033096306
0000c0 48 65 57 3b 36 17 f6 bc a6 43 58 3c be dc 45 bb
       0.0032866765 -0.030040365 0.013199722 -0.0030191387
0000d0 f4 d2 2e 39 81 e7 57 bd 48 17 b2 bc 94 8b 2b bd
       0.00016672519 -0.052711014 -0.021739617 -0.04188116
0000e0 0e b7 2e bd 9f 53 3e bd d7 54 42 bd 5b 15 01 bd
       -0.042655043 -0.046466466 -0.04744419 -0.031514507
0000f0 0e 1d 82 bc b7 fe 56 bc b7 f1 f2 bc 9a 92 de bc
       -0.015882995 -0.013122252 -0.029656274 -0.027169514
000100 76 b1 fb bb 95 58 e3 bc d8 36 c8 bc e2 7b 9a bc
       -0.007681067 -0.0277522 -0.024440214 -0.0188579
000110 c0 1c 08 bd 63 6c 9b 3b 92 a6 3b bd 50 25 a7 bc
       -0.033230543 0.0047431453 -0.04581315 -0.020403534
000120 44 c0 22 bd 73 02 12 bd 3f 1f 1c bd 46 06 88 bc
       -0.03973414 -0.035646867 -0.038115736 -0.016604554
000130 9e dd bf bc 0a c2 9e bc 09 cb fe bc 06 45 2f 3c
       -0.023421105 -0.019379634 -0.031102674 0.010697609
000140 10 ce bc bc fb 81 4a 3d ea 45 e4 bc 89 86 63 bd
       -0.023047477 0.049440365 -0.027865369 -0.055548225
000150 10 53 2f bd 45 b0 89 bc 3b e3 46 bc de 1f 2b bb
       -0.042803824 -0.016807685 -0.012139137 -0.0026111524
000160 aa f7 c5 3c 00 6c 16 bd 37 92 4f bd dd 01 e9 bb
       0.024165947 -0.03672409 -0.05067655 -0.007110818
000170 4b 3d e1 bb e1 23 cc bc 8c 6c 68 37 f4 13 f5 bc
       -0.006873762 -0.024919452 1.3853551e-05 -0.029916741
000180 a3 34 52 bc d0 c9 80 3c 50 eb 19 bd d7 f4 0c bd
       -0.012829932 0.015721232 -0.037577927 -0.034413185
000190 63 9e 6b bc 53 14 66 3c 66 8b 0c 3c b9 05 6f bc
       -0.014381024 0.014042932 0.008578157 -0.014588767
0001a0 7a 16 42 3c 2a 96 a9 bc e1 e2 a0 3c 50 9a 2e 3d
       0.011846179 -0.020701487 0.019639434 0.042627633
0001b0 0d 5d d2 bc 66 a6 e4 3c b3 e1 30 3c 55 c5 ac 3d
       -0.025679136 0.027911376 0.010795998 0.084360756
0001c0 76 05 58 bd e6 ee 2e bd 18 e5 80 bd c6 fa 00 bd
       -0.052739583 -0.0427083 -0.06293696 -0.031489156
0001d0 02 0f ed bc 70 dd f3 bc 97 54 b0 bd 6e 19 d6 bc
       -0.02893782 -0.029768676 -0.08609884 -0.026135173
0001e0 4e a5 b0 bb 3d 59 1e b9 f5 39 e3 3c 4f 1f b5 bc
       -0.0053907996 -0.00015101298 0.027737597 -0.022109656
0001f0 59 8e f4 bc 0a 56 4a bc ad 40 9e 3c f7 79 21 bc
       -0.029853033 -0.012349615 0.01931795 -0.009855739
000200 5e a0 d5 bc fb 9e 3f bd c7 58 17 bd 44 da 1f bd
       -0.026077446 -0.046782475 -0.0369499 -0.039026514
000210 6a 20 cf bb 4e d3 95 bc 59 2d 74 3b ff 5f a9 bc
       -0.0063210027 -0.018289234 0.0037258475 -0.020675657
000220 d7 76 6c 3a 87 e2 4a 3c e8 40 14 bd 75 83 81 bb
       0.0009020394 0.01238311 -0.036194712 -0.0039524385
000230 f4 77 04 bd 5e 1a c9 bc 31 c9 28 3b 33 cd ca ba
       -0.03234096 -0.024548706 0.0025754685 -0.0015472531
000240 ef 6f 7d 3c 05 b2 ab bc 45 dc 9f 3b fc 35 c4 3c
       0.015468582 -0.02095891 0.004878553 0.023951523
000250 ee a8 6f 3d 19 68 6b 3d 3b 62 86 3c c7 5b 91 bc
       0.058510713 0.057472322 0.016404262 -0.017743958
000260 1f aa 4f 3b 83 f0 cc 3d 72 f4 5c 3d bd 34 1b 3d
       0.0031687093 0.100068115 0.05394406 0.037892092
000270 64 20 05 3d 4c 7d 5f 3b d3 d4 45 3c 95 86 1d bd
       0.032501593 0.0034101782 0.012074667 -0.038458426
000280 6e b5 a9 bb c4 f7 9f 3c 8f 63 1a bd 25 5a 9a 3c
       -0.005179099 0.019527324 -0.037692603 0.018841812
000290 56 4e ef bc 5d 52 b4 bc 5a 0b 12 bd 7d 5a 67 bd
       -0.029212158 -0.02201193 -0.035655357 -0.05648278
0002a0 5c 70 7e bc 62 98 aa 3c 68 9d 92 ba 1c 99 19 bd
       -0.015529718 0.020824615 -0.0011185827 -0.037499532
0002b0 c1 f0 a6 3c b9 9c 5d 3c a5 52 e5 bc 3e df 0a 3c
       0.020378472 0.013526135 -0.02799351 0.008476077
0002c0 62 a3 dd bc c0 ee e5 bc 20 c3 dc bc 1e 28 45 3c
       -0.027055446 -0.028067946 -0.026948512 0.01203349
0002d0 67 92 be bc 37 af bd bc 0b 09 0c bc 87 66 de bc
       -0.02326317 -0.023154838 -0.008547078 -0.027148498
0002e0 03 44 ba bc 6b 5d 99 bc 6c ca b7 bc fc 6d be bc
       -0.022737509 -0.018721303 -0.02243539 -0.023245804
0002f0 27 77 ab bc 19 bc 05 bd 14 e1 3f bd 60 f1 6d bc
       -0.02093084 -0.032650087 -0.04684551 -0.01452288
000300 b5 4e 29 bc 4a 4b b0 3b 37 20 b4 3b cc 28 eb 3b
       -0.010333707 0.005380069 0.0054970044 0.007176494
000310 c8 33 9f bc f1 56 04 bc be 79 88 bc 70 88 ca bc
       -0.01943387 -0.008077369 -0.016659614 -0.024723262
000320 6c e7 cb bc d4 78 4e bc c7 9a bf bc 78 d5 1f bd
       -0.024890624 -0.01260205 -0.023389233 -0.03902194
000330 bc c1 21 bd c0 2b f5 3c 3b 48 ec bc 4f ba 3f 3c
       -0.0394914 0.029928088 -0.028843036 0.011702134
000340 ee b8 a3 bc 00 63 17 bd 29 19 b4 bc ea 74 8f bc
       -0.019985642 -0.036959648 -0.021984654 -0.017511804
000350 09 65 27 bc 7f f9 19 bc 67 5b ca bc 15 1f 0d bd
       -0.01021696 -0.009397863 -0.024701787 -0.03445347
000360 aa e5 48 bc 90 13 fa bb 15 bc 96 bc b7 a1 0d 3c
       -0.012261787 -0.0076317266 -0.018400231 0.008644513
000370 a6 6f 13 bb 8c 13 54 bd 5c 3b a3 bc 8d 62 02 bc
       -0.0022496968 -0.051776454 -0.019925766 -0.007958067
000380 8c 54 b1 bc 63 60 4d bc eb 6f 8b bd b2 3a 31 bd
       -0.02164676 -0.012535187 -0.06808456 -0.043268867
000390 47 e1 04 bc 5c d4 c4 bc 06 55 54 bb f0 8b 27 bd
       -0.008110351 -0.024027042 -0.003239931 -0.04090494
0003a0 1a c6 a4 3c 10 b9 48 bc 3c 44 9c bc 28 a9 9c bc
       0.020113993 -0.012251154 -0.019075505 -0.019123629
0003b0 2d ca 8b bc 88 2c cf bc 22 6b 13 bd 1d 50 c6 bc
       -0.017064178 -0.025289789 -0.03599084 -0.024208123
0003c0 f2 8b ac bc d8 1f 31 3c ab 0c 9e b8 66 ea c9 bc
       -0.021062825 0.010810815 -7.536387e-05 -0.024647903
0003d0 57 97 0d 3d fc 1e 1a bc 6d 75 17 bc 2b f4 e4 bc
       0.034568157 -0.009406801 -0.009244305 -0.02794846
0003e0 16 2e ab 3c 38 7e b3 bc 20 c2 5f bd d1 fa 9f bc
       0.020895999 -0.021910772 -0.05462849 -0.019528778
0003f0 5e 14 b7 bc c8 61 0b 3c 33 ab 00 bc ee 22 d2 bb
       -0.022348579 0.0085072 -0.007853317 -0.0064128553

dense1.1.bias f4 [30]
000000 b5 b3 27 bc 40 37 b0 bb e3 4f 12 bd e6 32 23 3c
       -0.010235717 -0.00537768 -0.035720717 0.009960866
000010 3b 99 b3 bc 33 cb 98 bc 73 5d eb bb 44 db eb bb
       -0.021923652 -0.01865158 -0.007182771 -0.0071977694
000020 d8 68 ba bc 81 09 73 bc ba 75 86 bc 29 6a 8a bc
       -0.022755072 -0.014833809 -0.016413558 -0.016896324
000030 b8 af c4 ba 3c d9 62 3b 36 6e cd bb dd 3d 46 bd
       -0.0015005982 0.0034614345 -0.0062692417 -0.04839884
000040 3d 71 5b bc e3 64 7b bc c0 fa 5d bc 9f cd 6d ba
       -0.013393697 -0.0153438775 -0.013548553 -0.00090714725
000050 e0 d0 a1 bc 29 cf af bb ec cc 34 bc f4 f0 76 bc
       -0.01975292 -0.0053652716 -0.011035185 -0.015072096
000060 70 38 53 bc 9c f6 9f bc 16 2d 74 3a 72 25 11 bc
       -0.012891874 -0.019526772 0.00093145797 -0.008859025
000070 20 3b 0c b9 bb dd 05 bc
       -0.00013373466 -0.00817054

dense2.2.weight f4 [2, 30]
000000 cd 97 d4 bd 62 15 c4 bd bf 3c f5 bc b8 46 21 ba
       -0.10380516 -0.09574391 -0.029936193 -0.00061522005
000010 f9 41 03 be 40 4f 2d 3d fd 92 4a be a0 d6 ae bd
       -0.12818135 0.042311907 -0.19782634 -0.0853703
000020 d0 c8 6b bd 20 58 fe 3d 3e 21 13 be 39 88 08 be
       -0.057564557 0.12419152 -0.1436815 -0.13333215
000030 e1 8e 27 be ce 9a 1c 3e 3a 38 03 3e 05 38 2b 3e
       -0.16363098 0.15293428 0.12814417 0.16720589
000040 b5 d3 a3 bd 3a d9 72 be ec 08 da 3d c7 f1 bb bd
       -0.07999364 -0.23715678 0.10646233 -0.09176975
000050 ff 87 2f bd 2f c3 1c 3c d2 8d 1e 3d db 39 07 be
       -0.042854305 0.00956802 0.03870947 -0.13205664
000060 72 21 f8 bd d7 b9 08 3e d3 48 9f 3d 9f cc 51 be
       -0.12115754 0.13352142 0.07777562 -0.20488213
000070 86 a9 c7 bd 1d ad 8e 3b d0 06 92 3a d3 d3 27 3e
       -0.09749131 0.004354133 0.0011140946 0.16389398
000080 0c 81 1d 3e 57 5c 49 3e 74 10 26 3e 27 1e ea bd
       0.15381259 0.19664131 0.16217214 -0.11431532
000090 cd 6f ef bc ae 19 19 3e 2e 9b 00 bc 14 24 e7 bd
       -0.029228115 0.14951202 -0.007849498 -0.11286178
0000a0 12 75 84 3d f7 ce 2d 3e 99 d4 0a 3e 9c 5d 92 3c
       0.06467642 0.16973482 0.13557662 0.017866902
0000b0 55 17 45 3c 2d 14 23 be cc e1 23 3e 1f 3a 3f 3e
       0.012029489 -0.15925665 0.16004103 0.18674515
0000c0 79 f1 a3 ba b7 76 ce 3d 79 f6 d2 3d 36 9a 0f be
       -0.0012507878 0.10081237 0.10300917 -0.1402367
0000d0 1a 2e 7f 3d 97 77 29 3e bc a8 6b 3d df 93 c7 3c
       0.062299825 0.16549526 0.057533965 0.024362503
0000e0 71 78 be bd 94 5b 91 3d ec 9f 16 3e cf 38 51 3e
       -0.09300316 0.07097545 0.14709443 0.20431827

dense2.2.bias f4 [2]
000000 78 8d 53 3e d4 f1 ca 3d
       0.20659435 0.09909406
