checkpoint_dir/CNN_3ways_special2_cross4/ADD_91.pth (torch, 693395 bytes, 4 tensors)

dense1.1.weight f4 [30, 5760]
000000 02 27 46 3c 4f 2a a9 39 5e 83 38 bb fb 2f 35 bc
       0.012094261 0.00032265714 -0.0028154473 -0.011058803
000010 e1 5d 27 3b 15 3f c0 3c 3c 17 e4 bb ac 3b 3a 3a
       0.0025538134 0.02346758 -0.0069607776 0.0007104229
000020 5c f9 91 bc d1 c7 3f bc 43 41 6d 3c d2 3e 55 3b
       -0.0178191 -0.011705355 0.014480892 0.0032538665
000030 3f a3 91 3a f1 b7 27 bd b9 71 a5 bc 53 5a 1b 3c
       0.0011111273 -0.040946905 -0.020195829 0.009481984
000040 d6 41 03 bc 62 ed 82 39 37 a6 49 3c 7a 87 e4 bc
       -0.008011302 0.00024972396 0.012307695 -0.027896632
000050 62 0a 47 bc 8d fa 15 bc 01 b0 7e 3b 37 11 d3 bc
       -0.012148472 -0.009153974 0.003886223 -0.025765045
000060 81 41 17 bc 7f 68 a1 bc 4b 48 f1 bb 6b b0 ea bb
       -0.009231926 -0.019703148 -0.0073633543 -0.007162144
000070 ec 74 73 bb 9c 06 8a bc 69 b7 b7 bb ad eb 26 bd
       -0.0037148548 -0.016848855 -0.005606581 -0.0407521
000080 d5 f1 7d bc e7 d2 8a 3c 22 ea 20 3c a0 8c da bb
       -0.015499552 0.01694627 0.009821447 -0.006669596
000090 b8 c6 26 bc 85 5e 0c 3c 83 6e c3 3c 9a 4e ef 3b
       -0.010179214 0.008567457 0.023856407 0.007303071
0000a0 34 00 90 3b b9 94 d1 3c ac 5b c4 bb fa 93 71 3b
       0.0043945555 0.025583612 -0.0059923735 0.0036861883
0000b0 29 63 01 3b f5 55 bc 3b 94 a0 88 3b 73 01 89 bb
       0.0019742942 0.0057475516 0.004169533 -0.004181081
0000c0 9a 70 f0 3c e0 64 6d bb 79 d0 38 3c 50 e4 d1 bb
       0.029350568 -0.0036223456 0.0112801725 -0.006405391
0000d0 7f 3d 8a bc 8b f2 0e bc 40 8d 08 3d bf ec bd 3b
       -0.016875027 -0.008724819 0.03333783 0.0057960446
0000e0 3a a5 3b 3c 17 f8 cc 3c d5 6a 8d bc 05 b6 15 bd
       0.011452967 0.025020642 -0.017262856 -0.03655054
0000f0 26 5d 14 3c da 55 3f 3c 73 12 ac 3c 7d 21 6a bb
       0.009055411 0.011678183 0.021004891 -0.0035725527
000100 0b 48 31 3c 8a bf c1 bc 8c 37 8e 3b a7 a0 68 3c
       0.010820399 -0.023650903 0.004340118 0.014198459
000110 79 55 d1 bb 42 f2 d0 bb ed 50 66 3b 7e 65 2b bc
       -0.006388363 -0.0063765356 0.003514345 -0.010461209
000120 a9 d2 3d 3b f3 de 0a bc a6 0f 4b 3c 6a 82 53 bc
       0.0028964675 -0.008476007 0.012393868 -0.012909511
000130 64 6a bf bb a5 33 21 3c 70 ab 30 3c d0 7c b6 3b
       -0.00584154 0.009838973 0.010783061 0.005569078
000140 0b 2b d8 3b 51 44 da bb ed af 2b 3c 6b fd 0b bb
       0.006596928 -0.006660976 0.010478956 -0.0021360766
000150 90 d4 01 bc f0 4c 56 bc cd c1 79 3c 1d 09 49 bc
       -0.007924214 -0.013079867 0.01524396 -0.012270239
000160 d8 78 4e ba d6 2d 25 3b 72 57 82 3c 57 74 2c ba
       -0.00078762835 0.0025204322 0.015910838 -0.0006578615
000170 04 3a 3c bb ac d4 f0 ba 6b c9 ab 3b 71 6e e2 bb
       -0.0028721103 -0.0018373928 0.0052425168 -0.0069101383
000180 6e 6e 6a bb 7b 7e 1d 3d e4 f9 a3 bc 87 8b c7 bc
       -0.0035771388 0.0384507 -0.020016618 -0.024358524
000190 bd 57 3c bc 4a 6c 51 bc dd a8 15 3b 4d 1d 1b 3c
       -0.011495528 -0.012782166 0.0022836246 0.009467435
0001a0 1a 03 0e 3a af 8f 1c bc c6 57 4d bc 89 ad ae bc
       0.0005417332 -0.009555741 -0.012533134 -0.021322982
0001b0 62 c8 52 bc ae a3 8f bc 2a b2 9d bb eb 01 82 bc
       -0.012865158 -0.017534103 -0.0048124986 -0.015870055
0001c0 70 0e 25 bc 4d 08 99 bc 45 62 42 3c ce a7 78 3c
       -0.010074243 -0.018680716 0.01186425 0.0151767265
0001d0 09 3b 42 3c fc 55 e0 bc a3 c1 6f bb 95 c0 17 bc
       0.011854895 -0.02738475 -0.0036583922 -0.009262224
0001e0 ac 81 82 3c 43 63 ec bc d3 a8 80 3b 20 fe 02 3c
       0.015930973 -0.028855925 0.0039263754 0.007995158
0001f0 f2 23 a8 3c 3f d8 9b bb 74 10 4e 3c da 6d b1 3b
       0.020524953 -0.004756003 0.012577165 0.0054147067
000200 1d a9 a1 bc 76 9a e1 bc 86 b3 3f bc 57 cc f8 bb
       -0.01973396 -0.027539473 -0.011700517 -0.0075927186
000210 0b 81 98 3b ff 54 92 bc af 62 93 bc cc 78 18 3d
       0.004654055 -0.017862795 -0.017991392 0.037224576
000220 1b 7f cc bc f9 48 c3 3c d3 45 a9 bb d8 07 c7 bc
       -0.024962952 0.023838507 -0.0051657944 -0.024295732
000230 4e 71 c8 3c 62 df 90 bc b7 54 b7 bc c2 3a f2 3b
       0.02446809 -0.017684642 -0.022379262 0.0073922584
000240 64 ad e7 bc 53 55 7b 3c 99 ff b3 3b 56 b5 9a bc
       -0.028280921 0.015340167 0.005493116 -0.018885296
000250 d5 32 d3 bc 60 b5 3d 3c 89 bf da 3c 4d 67 ea bb
       -0.025781075 0.011578888 0.02670266 -0.0071534277
000260 ea e6 33 3a d0 5a 54 3b 01 e9 a5 bb cd c4 86 bb
       0.0006862717 0.0032402761 -0.0050631766 -0.004112816
000270 78 27 8c 3c 84 76 66 3a 49 46 67 bb 9d 13 c6 bc
       0.017108664 0.0008791464 -0.0035289696 -0.024179274
000280 ff 84 2d 3d c7 b6 f5 3b 94 1b cf bb f9 e6 8d 3c
       0.042363163 0.0074985954 -0.0063204262 0.01732205
000290 fc fc 0c bc 40 75 13 bc 2e ec ac bc 64 03 13 bc
       -0.008605238 -0.009000123 -0.021108713 -0.008972976
0002a0 68 81 90 bc 3f 59 58 bc 14 a2 d1 bb df f6 0c 3d
       -0.01763983 -0.013204872 -0.006397495 0.034415122
0002b0 16 8f 95 bc 0e 99 9e bc db cd f6 3b 50 46 f2 bb
       -0.018256705 -0.019360092 0.007531864 -0.007393636
0002c0 62 f6 1c 3c 80 89 1c bc ac 35 3f 3c b3 b7 a7 3b
       0.009580227 -0.009554267 0.011670511 0.005118334
0002d0 fe 0a d8 bb 94 09 81 bc a7 49 38 bc f6 e2 6d bc
       -0.0065931072 -0.015751638 -0.011248029 -0.014519444
0002e0 19 9a 8b bc 6e 07 a4 3b b4 a7 50 3c db 3d 5c 3c
       -0.017041253 0.0050057685 0.012735296 0.013442482
0002f0 16 fc 83 3c 98 80 d7 3b 12 55 17 bd bf e3 9d bc
       0.016111415 0.006576609 -0.036946364 -0.019273637
000300 d1 30 f7 bc 76 4c 87 bb f4 d3 16 3c 3f 61 96 bc
       -0.030174645 -0.004128988 0.009205807 -0.018356917
000310 15 5c af 3b 2e c9 d2 3b 75 fe 9a bc d4 7d 2c bc
       0.005351553 0.006432674 -0.018920163 -0.010528047
000320 04 b5 cc b9 e1 df 9f bb 5d 79 af bb 5d 52 3d bc
       -0.0003904478 -0.0048789834 -0.005355044 -0.0115552815
000330 03 bc 5f 3b 89 4a 42 bb 80 5a ad 3a 29 e3 73 bc
       0.0034139163 -0.0029646477 0.0013225824 -0.014885702
000340 9d 21 80 3b cb eb 2d 3b a5 b6 0a bc 65 eb bb bc
       0.003910257 0.0026538249 -0.008466397 -0.022939393
000350 35 fa 93 bc be 80 b7 bc 41 39 4a bc 93 7d 9f 3c
       -0.018063644 -0.022400256 -0.012342752 0.019469058
000360 9d 72 0d bc c9 d0 7d bc 22 53 c0 3b f5 0d 9f 3b
       -0.008633283 -0.015491673 0.005869285 0.0048539587
000370 3c 4d 79 bc 5b 84 7a 3c 2a 50 aa bb 26 b8 b1 bc
       -0.015216168 0.015290345 -0.0051975446 -0.021694254
000380 d4 b9 b9 bc 83 e0 e0 3a bb 66 dd bc 8b af 09 3c
       -0.022671618 0.0017156753 -0.027026525 0.008403669
000390 a6 ab 91 ba 29 a9 99 bc f8 1e 38 3c d0 e4 d1 bc
       -0.0011113777 -0.01875742 0.011237852 -0.025621802
0003a0 da d5 09 bc 84 98 5e 3c 2b bc 0f bd f8 80 d6 bb
       -0.008412803 0.013586167 -0.03509156 -0.006546136
0003b0 93 f7 87 bc c2 ee 39 bc d9 29 b8 bc c8 e6 9c bb
       -0.016597545 -0.011348428 -0.022480892 -0.0047882535
0003c0 ba 9c 93 3b a8 e1 0e bc 15 05 87 bc a3 c3 c5 3c
       0.0045047672 -0.008720793 -0.016481915 0.024141138
0003d0 34 60 3d bc ff 68 e2 bb c5 d8 a6 bc fc a2 d4 bb
       -0.011558581 -0.006909489 -0.020367036 -0.006489156
0003e0 f0 46 8c 3c 82 81 df bb b0 5a 75 3c ee ec 3c 3a
       0.01712367 -0.0068208585 0.014975235 0.0007206936
0003f0 56 68 4e 3c 5b 02 a3 3a e1 24 16 3c 9d fc b1 bc
       0.012598118 0.0012436615 0.009164066 -0.0217269

dense1.1.bias f4 [30]
000000 55 d3 5e bc a5 a7 bc bb 2a 33 99 bb e5 40 fc bb
       -0.01360019 -0.0057572895 -0.0046752887 -0.0076981657
000010 b9 7f a6 bc dd 5c 52 bb b6 ed 34 3a d3 11 c2 3b
       -0.020324575 -0.0032098808 0.0006901877 0.005922535
000020 94 a8 7c bc 00 e5 92 bc be dc fb 3b 31 a1 69 bc
       -0.0154210515 -0.017931461 0.0076862266 -0.014259622
000030 d2 fc 12 bb 6a 7d 7e bc ec 63 7a bc 40 62 4b 3b
       -0.0022428525 -0.015532831 -0.015282612 0.0031033903
000040 18 6f 83 bc 62 b4 48 bc 44 9e 89 bc 48 e0 4a bc
       -0.016044185 -0.012250038 -0.0167991 -0.012382574
000050 84 1e 7e 3c 2e 74 6e bc 06 39 af ba 15 ff 46 bd
       0.015510205 -0.014554067 -0.0013368435 -0.04858311
000060 8a 69 af 3b 4e a7 42 bc ef 8d 88 bb 51 40 69 3c
       0.0053531574 -0.011880709 -0.0041673104 0.014236526
000070 74 f6 04 bd 92 b9 10 bd
       -0.0324616 -0.035333224

dense2.2.weight f4 [2, 30]
000000 38 a1 16 be b9 dc c2 bb b0 1e 14 3e 6b d4 a1 3d
       -0.14709938 -0.0059467223 0.14464831 0.07901844
000010 ec 79 d0 bb 70 9b dd bd 54 87 77 bd 7c 18 ac 3c
       -0.0063621905 -0.10820663 -0.060431793 0.021007769
000020 c5 cf 2f 3d 18 1c 53 3e 8f 8f e2 3d 95 77 13 3d
       0.042922754 0.20616186 0.11062538 0.036002714
000030 0b f8 48 3e 23 9e 86 bb 36 87 b2 bd cd 7a 6e bd
       0.19625871 -0.004108207 -0.08717196 -0.05822258
000040 1f 98 d4 3d 52 91 26 bd 7a 2f 88 bd db 20 a0 bd
       0.10380577 -0.040665932 -0.066496804 -0.07818767
000050 57 3e 68 3e 97 d2 6d bd 70 ac 0a 3e dc d1 65 3d
       0.22680031 -0.058062162 0.13542342 0.05610834
000060 be f3 99 bc ad d8 c4 bd ef 1d 01 be 3f 5a f3 3d
       -0.018792983 -0.0961164 -0.12609075 0.118824475
000070 4d ff 64 3e c6 15 50 3e e7 35 8e bd fb 44 a4 3d
       0.22363015 0.20320806 -0.06943875 0.080209695
000080 c7 65 08 be 77 08 76 3e 95 ef 08 be 7d 2a a3 bc
       -0.13320075 0.24026667 -0.13372643 -0.01991772
000090 e1 6b 0a 3e 18 2a 13 be 02 48 f8 bc 31 ed 68 be
       0.13517715 -0.14371526 -0.030307774 -0.22746731
0000a0 cc a0 94 bb 62 14 40 3e 5f 04 84 3d f2 70 42 be
       -0.00453577 0.18757775 0.06446146 -0.18988398
0000b0 84 aa be 3d 21 6b 8d bd 52 24 60 be 63 e5 38 3e
       0.09309867 -0.06905199 -0.21888855 0.18056254
0000c0 75 44 e0 3d f4 25 f6 3d aa fd 97 3d e7 ee 16 3e
       0.10950557 0.12018958 0.074214295 0.14739572
0000d0 a2 f9 33 be 28 89 4a be 4b 87 21 be 77 ca 9a 3d
       -0.17575696 -0.19778883 -0.15774266 0.07558148
0000e0 a5 da f9 3d 17 18 1d bd 56 33 1a be d2 87 1d be
       0.12199906 -0.038353052 -0.15058646 -0.15383843

dense2.2.bias f4 [2]
000000 2a 85 74 3d d5 43 12 be
       0.059697308 -0.14283688
