checkpoint_dir/CNN_baseline_new_cross3/ADD_51.pth (torch, 693459 bytes, 4 tensors)

dense1.1.weight f4 [30, 5760]
00000000: 54eb 92ba 6e8d e03c c2eb c13d e56b f6bc
00000010: b65c 34bd c199 56bd 6a30 25bd 1125 0dbd
00000020: 033e a53c f0a5 b4bd 9670 b6bc c71b 923b
00000030: 9fe3 5ebc 7029 29bd d6c6 3bbc ef44 56bc
00000040: 6b65 ed3c 72fc 6939 5569 833d afea a33c
00000050: e7c4 2bbc 71d7 5e3d af95 14bd ef7b f13c
00000060: 7e1c 17bb 4825 e73c 3fab 05bd 64c8 9cba
00000070: 3522 2e3c 7a44 9cbc 6494 243d a90b 2cba
00000080: 5429 623b 6d1b 68bd 8f79 99bc 2e87 0bbc
00000090: 1a0c f8bc 30c2 4dbd c923 4e3c aafc 2bbc
000000a0: adf1 e03c 5811 cc3c 7dd8 d83b 0543 253d
000000b0: 7bc9 cabc d995 983d a6e6 98bb 8d2d 1d3c
000000c0: 177d b23c 9d79 1f3c f513 51bd e541 1dbc
000000d0: 1200 9fbd 531d 54bb 57c7 c83d ddde 8abc
000000e0: dcc8 3abc 1913 b4ba 6e4a 8e3c e77b f43c
000000f0: 5331 eb3a f6e7 533c a563 033d c9c1 9c3c
00000100: aaef c43c e3e6 c0bc 15cf 8abc 7a44 ac3c
00000110: 75c3 1dbc a7cb 06bc 956e 5e3d 83f9 9cbb
00000120: b148 f33c 3cfd 88bc c8fc ceb9 aa43 e33c
00000130: 4180 cc3c dfb8 93bc 07d8 3a3d a98c 3e3d
00000140: 84d2 333d ff40 5c3d 7716 2c3b 4c6a 8f3d
00000150: eafa b8bb 7062 003d 9734 823d ce1e 16bd
00000160: 94e2 5f3c 184c 03bd 5cf1 d3bc 9fc0 c83b
00000170: cf48 68bb 79ad 003c b300 ea3c c65e 553c
00000180: a2b4 7fbc aaf1 843b 2955 c93c 717e 5abc
00000190: e859 1cbc 8a6a 2abd f4ec 243d 47ae 1a3d
000001a0: 9531 dfba 4edb a5bb c002 0ebd 7e09 5bba
000001b0: 8e9b 913b eea3 9ebc 1b47 3c3b dd61 58bd
000001c0: e04c f4bb 9bd2 76bd 2377 143c 3a8e ce3c
000001d0: 2a80 a03c e469 253d ecbb 53bd e5db 083d
000001e0: 1e32 2cbd 06a3 053c 0fb5 d7bc 41b3 61bb
000001f0: e0dd 75bd 1f5b 93bc e42e 19bd a009 0d3c
00000200: ed05 513b 8075 5fbc 7aa9 083d 1a15 363d
00000210: 6ace ffbc b3e9 933c 670d 2b3d ec66 11bb
00000220: 091b 20bd 8917 d0bc 434f 143d 4cf9 d53d
00000230: c0ef 68bd 4285 c93b 457a 05bc ed7b 40bd
00000240: 346e 4e3d 66cd d03c e6df d93c cddb 24bd
00000250: 913c b2bc ee8f 3a3b 5386 58bc 525a 4bbc
00000260: 7e9b 7fbc 0141 493d 1410 13bc dbd0 6c3b
00000270: f864 b3bb afd1 5e3d a21f 37bc 86b7 ff3b
00000280: a681 bc3b 591c 683d 35b3 72bb 7ba5 303c
00000290: 0c03 22bb e247 c33c 80e0 273d fd6e 22bd
000002a0: 1f47 b63b 3911 da3d f0e9 a53b 32a8 83bd
000002b0: b6b2 19bd 173e 9abb 4bd2 97bc c353 2c3d
000002c0: 8f03 463d 9077 073a 8222 653d 88c1 6e3d
000002d0: 8b20 4abd f1ec 08bc 50fc 3dbc 92cd c0bc
000002e0: 7988 f23c a7dc b53b 31af 883d c40b 403b
000002f0: d553 5c3d 73da cd3c 8e40 7a3d 9365 24bd
00000300: b5bd e23a bbef 82bd f480 083c 5bd7 0c3c
00000310: 7126 8c3c 61c8 ce3b 9b2b 4d3d 7ea5 febb
00000320: 8155 2abc 15c2 b4bc a19c 2e3d 0453 06bd
00000330: e771 7bbd 6c9a 853c e8e3 95bd 8f5f 41bd
00000340: 439a d23c ec95 8cbb 770f 8e3d df35 0c3d
00000350: ab00 e63c c064 873d c0aa 1a3c 9dcd debb
00000360: 9577 a2bd e653 a53b 47f9 983c cccf 08bb
00000370: 9fb1 8abb bf53 3bbd aeba 81bb b83e 2fbc
00000380: 7550 193d 4bc2 4bbd bd68 f93c 504f 9dbc
00000390: 47f8 7a3d 5f1e a43c f8d1 2b3c 8a34 503b
000003a0: da42 d4bc c4d2 c23c 72e6 803d 28e4 56bd
000003b0: 6a1b 25bc e22e bfbb 7464 883d 3a7e 123d
000003c0: c664 b43b 505b 363d f3c5 dc3c 2ff3 713d
000003d0: e6aa f2bc 41af e3bb ea9d dfbc a9e7 62bd
000003e0: 43fe ab3c ada9 873c 4d21 01bc 57a0 9a3d
000003f0: a2f3 09bc 4c74 c73c f1b0 c3b9 5ae1 edb9
-0.0011209049 0.027411189 0.09468795 -0.030080745 -0.04403373 -0.052392725 -0.040329374 -0.034459177
0.020171171 -0.088207126 -0.022270482 0.0044588777 -0.013604074 -0.041299284 -0.01146098 -0.0130779585
0.028979024 0.00022314655 0.06416575 0.020009367 -0.010483957 0.05440468 -0.036275562 0.029478041
-0.0023057754 0.02821602 -0.032634016 -0.0011961577 0.010628273 -0.01907562 0.04018058 -0.0006563017
0.0034509497 -0.05666678 -0.018734721 -0.008516116 -0.030279208 -0.05023402 0.012581774 -0.0104972515
0.02745899 0.024910614 0.0066176043 0.040347118 -0.024754276 0.07450456 -0.0046661673 0.00959338
0.021788163 0.009733585 -0.051044423 -0.00959823 -0.07763685 -0.0032366111 0.09803646 -0.016951973
-0.011400428 -0.0013738602 0.017369475 0.029844237 0.0017943777 0.012933722 0.03207745 0.019135373
0.024040062 -0.023547595 -0.016944448 0.021028746 -0.00962912 -0.008227265 0.054304678 -0.0047904863
0.029697748 -0.016722314 -0.00039479719 0.027742226 0.0249635 -0.01803249 0.045616176 0.046520863
0.043901935 0.053772923 0.0026258507 0.070026964 -0.0056451457 0.031343877 0.06357687 -0.03665047
0.01366486 -0.03205499 -0.025871925 0.006126478 -0.0035443788 0.007853859 0.028564787 0.013023084
-0.015607031 0.004057129 0.02457674 -0.01333581 -0.00954292 -0.04160551 0.04026504 0.03776386
-0.0017028326 -0.0050615435 -0.03467059 -0.00083556015 0.0044435924 -0.019365277 0.0028728906 -0.052827705
-0.0074554533 -0.060259443 0.0090616075 0.025214303 0.019592363 0.04038419 -0.05169289 0.033412833
-0.042039983 0.008156544 -0.026331453 -0.003443912 -0.06002605 -0.017987786 -0.037398234 0.008608252
0.0031894401 -0.013638854 0.03336475 0.044453718 -0.031226356 0.018055772 0.04176083 -0.002218659
-0.039088283 -0.025401847 0.036208402 0.1044794 -0.05686927 0.006149919 -0.008146827 -0.046993185
0.050398067 0.025488567 0.02659602 -0.04024868 -0.021757396 0.0028467136 -0.013215619 -0.012411671
-0.015601037 0.04913426 -0.008976001 0.003613523 -0.005474683 0.05439919 -0.011176975 0.00780386
0.00575276 0.05666766 -0.0037033085 0.010781641 -0.0024721054 0.023837987 0.040985584 -0.039656628
0.0055626775 0.10647816 0.005063288 -0.06428565 -0.037523948 -0.0047071087 -0.018532893 0.04207207
0.048343237 0.00051676575 0.055941112 0.058290035 -0.04934744 -0.0083572725 -0.0115958005 -0.023535524
0.02960609 0.0055499854 0.0667404 0.0029303888 0.053790886 0.025128579 0.06109672 -0.04013593
0.0017298969 -0.06393381 0.008331526 0.008596267 0.017108174 0.006310508 0.050090414 -0.007771193
-0.010396362 -0.022065202 0.04262984 -0.032794014 -0.061387923 0.016308986 -0.0731886 -0.047210272
0.025708323 -0.004290333 0.069365434 0.034231063 0.02807649 0.066110134 0.009440124 -0.0067994134
-0.07932965 0.005045402 0.018673552 -0.002087581 -0.0042326 -0.045734163 -0.0039590215 -0.010696106
0.037430245 -0.04974584 0.03044545 -0.019202858 0.061271932 0.020034013 0.010487072 0.0031769597
-0.025910784 0.023782142 0.06293954 -0.05246368 -0.010077337 -0.0058344463 0.06659785 0.03576491
0.005505177 0.044520676 0.026949858 0.05906981 -0.029622506 -0.006948382 -0.027296979 -0.05539671
0.020995265 0.0165604 -0.007881475 0.07550114 -0.008419903 0.024347447 -0.0003732513 -0.00045372063

dense1.1.bias f4 [30]
00000000: 5516 c5bb 0e87 04bc f152 7bbc a002 0d3c
00000010: a344 8dbc f42b 06bd 87a1 623b bab1 e6bb
00000020: d169 09bb e640 cbbc 60ab 043a 3ffa dbbc
00000030: 13de d5b9 ccb2 8cbc 23a6 a13c 4672 263c
00000040: 18cb 11bc 709f 54bc 157a 98bb bc25 97bc
00000050: 6611 a6bc 0dd6 c4bb 7469 bf39 2162 04bc
00000060: 20df 2abc 8e41 c5bc 364c 0ebc 72e0 84bb
00000070: 84e0 363b 0996 79bc
-0.006014625 -0.00808884 -0.015339599 0.008606583 -0.017244643 -0.03275676 0.003458114 -0.0070402296
-0.0020967613 -0.02481122 0.0005060937 -0.026852725 -0.00040791984 -0.0171751 0.01973254 0.010159081
-0.008898519 -0.012977466 -0.004653225 -0.01845061 -0.020271968 -0.006006962 0.00036508928 -0.008080036
-0.010429174 -0.02407911 -0.008685162 -0.0040550763 0.0027904818 -0.015233525

dense2.2.weight f4 [2, 30]
00000000: 8ee2 043e 4999 c93d b97d 483e 59c7 ffbd
00000010: 23de c2bd b4ba b83d 282f 8bbd 41b2 8a3d
00000020: 8dd0 c8bc c21e 1cbd f61d f73d 77be 663d
00000030: ba82 a13d ca49 573e 63b2 2f3e 71b7 a33d
00000040: 8ea7 54bd b478 28be d92c 8c3d 1c8e 51bd
00000050: 9e29 643d c9a2 683c 95f6 32be f3c9 18bd
00000060: 9ffb a13c 7152 cf3d 4359 babd 4f2d 6a3d
00000070: e4fc a53d 5b3f be3d cc1b b83b 1538 14be
00000080: 224f c73d e65c 19bd 2715 d23d d0b4 5abe
00000090: e36d 8fba c78c 7fbe c8ce e93d 3cb8 f43d
000000a0: 65bb 0c3b 7c56 e43d 7dfc b93d be8a 2c3a
000000b0: b1e0 b93c 16a4 ecbc e021 123e 581b d33b
000000c0: e4d6 c7bc b930 0d3e 087f 2b3d 66c0 0fbe
000000d0: a6f1 1b3d 997f d43d 5669 5e3d 8858 55bd
000000e0: 7f40 003e cfad d3bd 38e8 8cbd 65dd 2f3e
0.12977049 0.0984369 0.1957921 -0.124891944 -0.095150255 0.09019986 -0.06796104 0.067722805
-0.024513507 -0.03811527 0.120662615 0.056333985 0.07886262 0.21024242 0.17157893 0.07993973
-0.051917605 -0.16452295 0.068444915 -0.051160917 0.05570375 0.014198967 -0.17476876 -0.03730197
0.019773303 0.10123146 -0.090990566 0.057172116 0.08104876 0.09289428 0.005618548 -0.14474519
0.0973189 -0.03744211 0.10257941 -0.21358037 -0.0010942783 -0.24956046 0.114163935 0.119492024
0.0021474 0.11149308 0.090813614 0.00065819535 0.022690149 -0.028886836 0.14270735 0.0064424686
-0.02439446 0.13788117 0.041869193 -0.14038238 0.03807225 0.103759 0.054299675 -0.052086383
0.12524603 -0.10335886 -0.0688023 0.17174299

dense2.2.bias f4 [2]
00000000: 4584 e7bd b8e6 823c
-0.11304525 0.015979156
