checkpoint_dir/CNN_baseline_new_cross1/ADD_39.pth (torch, 693459 bytes, 4 tensors)

dense1.1.weight f4 [30, 5760]
0.018712157 -0.002051114 -0.001966814 -0.02161306 0.023838064 -0.0068405997 0.017517485 -0.010727523
0.0076797092 0.012641134 -0.0033909706 -0.0054874113 -0.009629381 -0.01868777 0.009552498 -0.023168564
-0.010681264 0.037731223 -0.03464928 0.0044052186 -0.013695213 -0.007982568 0.0027051645 -0.020525496
-0.01277396 -0.016625294 0.035409715 -0.01739648 0.0009262974 0.027620284 0.007105971 0.018568832
-0.0036700775 -0.01382233 -0.01630436 -0.011446278 0.0010638377 -0.017453453 5.0598406e-05 0.0082474165
0.0056281607 0.020754093 -0.008077453 0.00013206608 0.017443871 -0.008833248 0.002219111 0.00150398
-0.0045132525 -0.008946004 0.019206176 -0.018900178 0.027482873 0.032315064 0.025705172 0.017041307
0.005377946 -0.005196316 -0.031561412 -0.01749436 0.023272168 0.019095384 0.021257702 0.01896702
0.010789446 -0.009769067 0.027806878 -0.00543192 0.0023379214 -0.0072148084 0.01794287 -0.017376846
-0.017282851 0.001684972 -0.0021039871 -0.02107413 -0.020013692 -0.014005469 0.025506135 -0.036429323
-0.035005175 -0.0026751414 -0.0029566055 -0.0037497685 -0.037676804 -0.010730221 0.0012742154 0.0032111057
-0.09032654 -0.06736655 0.020232517 0.017944742 -0.07283035 0.03751329 -0.0045888415 -0.046846118
-0.009473348 -0.017019551 -0.007282375 0.0018637135 -0.010052555 0.011585801 -0.024914956 0.039027087
-0.04602722 0.021906272 0.023626724 -0.0003157882 -0.008243782 0.00911513 0.011780446 0.00086266315
0.0147592975 -0.0019002977 0.009181406 -0.015973251 0.014410475 0.01923336 -5.07627e-05 -0.011700429
0.014713019 -0.0134010585 0.012977451 -0.0036008428 -0.0038174433 0.00689538 0.0011810772 0.014907403
-0.0038205616 -0.0101781795 -0.010378126 -0.022533203 -0.008681138 0.0042094616 0.01791199 -0.015879197
0.0068189492 -0.0037916538 -0.003213113 -0.011794688 0.0056972564 -0.011544237 -0.015879085 0.01129135
-0.013471841 -0.016837895 -0.003546379 0.020975113 0.03213987 -0.028623799 -0.0079659205 -0.006554564
-0.019915149 -0.022876158 -0.019014673 0.0014189751 -0.0006875876 0.008362465 -0.01751849 0.031424295
-0.015674392 0.0035935785 -0.013106011 0.026786339 0.008490239 -0.01723577 0.007206303 0.0067224517
-0.020464437 0.0026152758 -0.008956869 0.0037293918 -0.018621242 -0.011640332 -0.0048953374 -0.013305146
-0.0073653287 -0.011104292 0.0026147685 0.004915488 -0.035230443 -0.014525347 -0.016954118 -0.03348114
0.016339384 0.001442847 0.034379736 0.023757255 0.024597889 -0.0065155737 0.027052226 -0.028457748
0.009552344 -0.0028891475 0.033396073 0.0024689604 0.07287432 0.023201074 -0.013644483 0.015978998
0.008830567 0.006328423 -0.015845088 0.014857716 0.006096999 -0.01892638 0.031785104 -0.012799159
-0.02642758 0.027428277 0.018706456 -0.004592303 0.013242084 0.01795515 -0.009488587 -0.01260219
0.0038855593 0.010684344 0.012045501 0.011853761 -0.01155237 0.008304439 -0.004462246 -0.007127378
-0.009722808 -0.011657754 0.004085683 0.0038620126 0.0012632991 0.025487209 0.00843248 0.035904173
-0.036924873 -0.0034087545 0.009118932 -0.008176349 0.040830232 -0.0020078856 -0.0018979233 -0.020904347
-0.006606778 0.034700125 -0.0155123025 9.2829505e-05 0.0013757598 0.0070384233 -0.009494342 -0.00914111
-0.020947233 -0.004838423 -4.7935057e-05 0.012031622 0.0067316736 0.019371506 -0.0108167855 0.006144659
00000000: 3d4a 993c fc6b 06bb aae5 00bb df0d b1bc
00000010: 0b48 c33c 1c27 e0bb d480 8f3c 7ec2 2fbc
00000020: 12a6 fb3b c21c 4f3c 0c3b 5ebb becf b3bb
00000030: 8dc4 1dbc 1817 99bc 1582 1c3c 00cc bdbc
00000040: 7800 2fbc 0e8c 1a3d 67ec 0dbd a759 903b
00000050: e361 60bc 51c9 02bc 2149 313b 1625 a8bc
00000060: df49 51bc c531 88bc c709 113d 1083 8ebc
00000070: c4d2 723a ef43 e23c 35d9 e83b aa1d 983c
00000080: af85 70bb 0e77 62bc b990 85bc 2b89 3bbc
00000090: 7870 8b3a 8bfa 8ebc a039 5438 2c20 073c
000000a0: 6f6c b83b 7d04 aa3c 4b57 04bc 387b 0a39
000000b0: 73e6 8e3c 54b9 10bc 816e 113b 3221 c53a
000000c0: e8e3 93bb 4392 12bc 4556 9d3c 8cd4 9abc
000000d0: c323 e13c cd5c 043d a793 d23c 369a 8b3c
000000e0: 7b39 b03b dc45 aabb 8a46 01bd 5550 8fbc
000000f0: 46a5 be3c ec6d 9c3c a224 ae3c b960 9b3c
00000100: 37c6 303c 700e 20bc 40cb e33c 3ffe b1bb
00000110: d037 193b 336a ecbb edfc 923c e359 8ebc
00000120: c494 8dbc 47da dc3a 0ce3 09bb a7a3 acbc
00000130: c1f3 a3bc 3277 65bc 3ef2 d03c ea36 15bd
00000140: 9661 0fbd 6d51 2fbb 9cc3 41bb adbe 75bb
00000150: fe52 1abd cfcd 2fbc 9303 a73a 6a71 523b
00000160: 1ffd b8bd 79f7 89bd aabe a53c da00 933c
00000170: 1428 95bd 89a7 193d fe5d 96bb b7e1 3fbd
00000180: 1a36 1bbc 966c 8bbc fda0 eebb d947 f43a
00000190: 79b3 24bc 5fd2 3d3c 731a ccbc deda 1f3d
000001a0: 0a87 3cbd c874 b33c d58c c13c 6090 a5b9
000001b0: ee10 07bc a057 153c c602 413c 5824 623a
000001c0: fbd0 713c 6913 f9ba 9c6d 163c 56da 82bc
000001d0: ea19 6c3c 488f 9d3c 09ea 54b8 28b3 3fbc
000001e0: e00e 713c 1d90 5bbc 609f 543c 1efc 6bbb
000001f0: 122e 7abb a4f2 e13b 60ce 9a3a 2e3e 743c
00000200: 6362 7abb 61c2 26bc 0409 2abc 8d97 b8bc
00000210: 553b 0ebc 86ef 893b 2abc 923c 1715 82bc
00000220: 7e71 df3b 657d 78bb 1793 52bb 823e 41bc
00000230: 0db0 ba3b 0a24 3dbc db14 82bc 5bff 383c
00000240: ffb8 5cbc a0ef 89bc 5e6a 68bb 00d4 ab3c
00000250: 19a5 033d 757c eabc 7e83 02bc abc7 d6bb
00000260: 1825 a3bc c866 bbbc a9c4 9bbc e7fc b93a
00000270: 393f 34ba b802 093c f082 8fbc c3b6 003d
00000280: 9567 80bc 3e82 6b3b 98ba 56bc 066f db3c
00000290: a51a 0b3c 0832 8dbc da22 ec3b 0348 dc3b
000002a0: 09a5 a7bc 0c65 2b3b d5bf 12bc d068 743b
000002b0: 938b 98bc 17b7 3ebc 1169 a0bb d4fd 59bc
000002c0: db58 f1bb c7ee 35bc 895c 2b3b 1a12 a13b
000002d0: cc4d 10bd b9fb 6dbc 5de3 8abc 8523 09bd
000002e0: 2cda 853c e91d bd3a c4d1 0c3d 939e c23c
000002f0: 8381 c93c 9880 d5bb a19c dd3c 3920 e9bc
00000300: 6f81 1c3c da57 3dbb 52ca 083d 48ce 213b
00000310: 223f 953d 2e10 be3c 1c8d 5fbc 63e6 823c
00000320: 15ae 103c a95e cf3b 8fcd 81bc c76d 733c
00000330: 56c9 c73b 7f0b 9bbc 1931 023d 90b3 51bc
00000340: a77e d8bc 44b1 e03c 483e 993c 087b 96bb
00000350: 53f5 583c ae16 933c 0576 1bbc 6a79 4ebc
00000360: dea4 7e3b 630d 2f3c 7e5a 453c 4736 423c
00000370: 2746 3dbc 570f 083c 0838 92bb c88c e9bb
00000380: 6a4c 1fbc 2a00 3fbc 31e1 853b d219 7d3b
00000390: 4995 a53a 8dca d03c 6228 0a3c 4110 133d
000003a0: 893e 17bd 6965 5fbb 9367 153c 18f6 05bc
000003b0: 9a3d 273d bb96 03bb bdc3 f8ba 983f abbc
000003c0: ac7d d8bb b821 0e3d 5027 7ebc 76ad c238
000003d0: d752 b43a 93a2 e63b 288e 1bbc 98c4 15bc
000003e0: 8899 abbc a28b 9ebb e00d 49b8 4820 453c
000003f0: 5f95 dc3b feb0 9e3c e338 31bc 2359 c93b

dense1.1.bias f4 [30]
-0.0075936364 -0.01895899 0.0039253063 -0.022865495 -0.011767382 -0.006212624 -0.011092417 -0.0051539172
-0.016447017 0.00051356567 0.002078596 0.00852955 -0.020145543 -0.025362121 -0.009050384 -0.03372402
0.0018085559 -0.006426851 -0.013212359 0.0031212606 -0.012295103 0.0008584149 -0.0028164038 -0.008663476
-0.015003458 -0.0053090747 -0.004991241 0.011763029 0.0021565885 -0.019492036
00000000: 0ad4 f8bb e24f 9bbc db9f 803b 6b50 bbbc
00000010: facb 40bc 4493 cbbb f8bc 35bc 31e2 a8bb
00000020: e5bb 86bc cfa0 063a 0e39 083b 87bf 0b3c
00000030: 4408 a5bc 39c4 cfbc 1048 14bc 3322 0abd
00000040: 110d ed3a 5598 d2bb a678 58bc 108e 4c3b
00000050: 6671 49bc 4007 613a 6a93 38bb 41f1 0dbc
00000060: 10d1 75bc bff7 adbb 908d a3bb b8b9 403c
00000070: 8d55 0d3b c3ad 9fbc

dense2.2.weight f4 [2, 30]
-0.058753833 0.14293179 -0.04583639 0.16136517 -0.2190374 0.104777195 0.06771678 0.19650011
0.06861182 -0.18402177 -0.040937137 0.029570337 0.07661215 -0.10299986 -0.06335619 0.17549677
-0.17578197 -0.0029785403 0.029158568 0.060413267 -0.08888053 -0.14557613 -0.15171948 -0.13066036
0.07049057 0.003819592 0.03745097 0.009805357 0.058153663 0.1461639 0.026383232 0.035163272
-0.1542737 0.15987228 -0.07067011 0.10976778 -0.07162631 0.075122386 0.17962006 0.0822626
-0.16560481 -0.1292648 -0.03979066 0.16819482 -0.15347156 0.10018865 -0.008380141 0.098395616
0.050860595 -0.09399473 -0.044946965 0.14832821 0.016549302 0.11156142 0.15632452 0.14161225
0.13051477 0.15981077 0.1405261 -0.07418564
00000000: dca7 70bd b65c 123e f0be 3bbd e93c 253e
00000010: 574b 60be 6d95 d63d 18af 8a3d 5337 493e
00000020: 5b84 8c3d 3470 3cbe b3ad 27bd 7e3d f23c
00000030: d5e6 9c3d 97f1 d2bd e4c0 81bd 6db5 333e
00000040: 3000 34be 9d33 43bb f3dd ee3c e773 773d
00000050: ff06 b6bd e911 15be 5a5c 1bbe d4cb 05be
00000060: 5c5d 903d 1f52 7a3b 3066 193d a6a6 203c
00000070: 8932 6e3d fdab 153e a621 d83c 5d07 103d
00000080: edf9 1dbe 8fb5 233e 7ebb 90bd eecd e03d
00000090: d1b0 92bd c4d9 993d 52ee 373e 4b79 a83d
000000a0: 4f94 29be fe5d 04be 88fb 22bd 433b 2c3e
000000b0: a627 1dbe b52f cd3d dc4c 09bc a483 c93d
000000c0: 3353 503d 4f80 c0bd 4f1a 38bd 5ae3 173e
000000d0: 6792 873c 507a e43d 8913 203e cd02 113e
000000e0: aaa5 053e 6fa5 233e 13e6 0f3e a4ee 97bd

dense2.2.bias f4 [2]
-0.11974873 0.027887994
00000000: d23e f5bd 5d75 e43c
