checkpoint_dir/CNN_3ways_special2_cross3/ADD_40.pth (torch, 693459 bytes, 4 tensors)

dense1.1.weight f4 [30, 5760]
0.035095077 0.020040175 0.033497408 -0.00028302937 0.011261262 -0.014223416 0.021727761 -0.029493207
0.026168441 0.02480223 0.035626844 0.026158791 0.011115538 -0.029794427 0.04926001 0.036121722
-0.0056592454 -0.0934061 0.013705761 0.026875975 -0.026379503 0.0017438902 0.04850553 0.01717708
0.022319483 -0.027134227 -0.008619162 0.052463472 0.03821372 -0.036003735 -0.00079174904 0.050094057
0.013102997 0.004652163 0.014649772 0.012409984 0.058763392 0.036130898 0.04549516 0.007166318
-0.017828261 -0.03092724 0.061454587 -0.044756513 -0.023818223 0.0011682827 -0.042959083 -0.006077934
0.09972032 -0.07728803 0.047745544 0.0053528203 0.040592927 0.010464611 -0.011056096 -0.024693565
0.017209595 -0.022811087 -0.033021793 0.02455746 -0.00727412 -0.029651683 0.010835213 0.020552333
-0.00472098 0.013235737 -0.010291971 -0.0005545481 -0.063797824 0.038511876 0.049717512 -0.028417505
0.015652277 0.01667422 -0.015565469 0.008059723 0.01722989 -0.015399787 -0.010186589 0.0071578077
0.03207427 0.0057209088 -0.031186068 0.06849412 -0.033876944 0.027763048 0.020829765 0.06061153
-0.022698922 -0.073793024 0.0042785183 0.09910793 0.07566998 -0.004525802 -0.024347926 0.020611612
-0.02452224 -0.0181874 0.049401887 0.01645364 -0.009607371 0.02627395 0.016820533 -0.022063954
0.036346093 -0.004891429 0.024105826 0.025736712 -0.031753566 0.009727118 -0.11526484 -0.044238128
0.059295457 -0.026771097 -0.025906874 -0.04258871 0.049703404 -0.038191866 0.0057210983 -0.0594608
0.09656057 0.049590874 -0.03697905 -0.02009918 0.02425559 0.013044892 -0.01690885 -0.006070712
0.009797816 0.013796024 -0.041866925 -0.020981133 0.08217345 0.008293606 0.04542297 0.031304926
0.0005178085 -0.0455376 0.026160171 0.0058095297 -0.012731528 -0.014072891 -0.0008555458 -0.0049985526
0.028851015 -0.005012887 0.07577894 -0.001929706 -0.008088087 0.010471021 -0.0045640734 -0.054530326
0.021927996 0.008653248 -0.018352985 -0.015318148 0.014387312 0.02584772 0.07060333 0.021891152
-0.039182402 -0.021149412 0.02102598 -0.017585812 -0.016698312 0.06077565 -0.042736832 -0.018663181
0.032714356 0.049006827 -0.022186162 0.004314847 0.044700034 0.039678212 -0.004149912 0.03139692
0.013877117 -0.02799736 0.09745132 -0.023654424 -0.015899576 -0.10907114 0.0505476 -0.09140744
0.023713809 0.08809245 -0.0041869874 -0.065185435 -0.03253942 0.051704388 0.01843882 0.02502703
0.03942981 -0.03141629 -0.07203996 0.010029617 -0.0770904 0.108589545 -0.0047323825 -0.03831271
-0.023035906 -0.07623105 0.025124278 0.008747179 0.057017487 -0.0023036683 -0.0020997364 -0.027268758
0.08873288 0.04687537 -0.0067873346 0.015676541 -0.0079915915 -0.0011289034 0.026403427 -0.014408363
0.0011470922 -0.019078372 0.03161259 0.017991014 0.0033310244 -0.008051611 0.060404703 -0.0010598236
-0.04857154 -0.0061492356 0.005716905 -0.05033819 -0.0028861077 -0.014254873 -0.0016239282 -0.013166648
-0.02459247 -0.023276338 -0.053638354 0.025409782 -0.029068837 -0.02571359 -0.0033034203 -0.027602535
-0.017608272 0.0016947013 0.019004634 -0.0026139824 -0.026043586 -0.015311637 0.035814308 0.00017574203
-0.03342113 0.018080143 0.013462214 0.0023552056 -0.0096828425 0.04366107 -0.02386033 0.017386377
00000000: dbbf 0f3d 4b2b a43c 9434 093d 8f63 94b9
00000010: 2881 383c 5509 69bc 6bfe b13c bd9b f1bc
00000020: 335f d63c 0c2e cb3c 74ed 113d f64a d63c
00000030: f21d 363c 7113 f4bc ddc4 493d 5ff4 133d
00000040: 3171 b9bb b34b bfbd 218e 603c 012b dc3c
00000050: d419 d8bc 3f93 e43a bcad 463d f3b6 8c3c
00000060: 59d7 b63c 9948 debc 6337 0dbc f0e3 563d
00000070: fd85 1c3d a778 13bd 618d 4fba 6d2f 4d3d
00000080: f4ad 563c 2c71 983b 9905 703c 3f53 4b3c
00000090: e2b1 703d fefd 133d 2259 3a3d 6fd3 ea3b
000000a0: 930c 92bc 205b fdbc ceb7 7b3d 9b52 37bd
000000b0: 6f1e c3bc 1021 993a ddf5 2fbd 6829 c7bb
000000c0: 2b3a cc3d 3049 9ebd d590 433d b666 af3b
000000d0: c544 263d c373 2b3c a124 35bc 294a cabc
000000e0: 23fb 8c3c 51de babc dc41 07bd ba2c c93c
000000f0: be5b eebb 16e8 f2bc 2d86 313c 5e5d a83c
00000100: 73b2 9abb b4da 583c a89f 28bc 185f 11ba
00000110: 6fa8 82bd a1be 1d3d 97a4 4b3d d4cb e8bc
00000120: 3439 803c 6098 883c 4f06 7fbc ee0c 043c
00000130: b325 8d3c 634f 7cbc a7e5 26bc 0b8c ea3b
00000140: 4f60 033d 7676 bb3b ed79 ffbc a546 8c3d
00000150: 8dc2 0abd 556f e33c 2fa3 aa3c cc43 783d
00000160: 17f3 b9bc cc20 97bd d032 8c3b 19f9 ca3d
00000170: ddf8 9a3d 2e4d 94bb 4d75 c7bc afd9 a83c
00000180: dde2 c8bc befd 94bc a259 4a3d c9c9 863c
00000190: 3c68 1dbc 773c d73c 37cb 893c 77bf b4bc
000001a0: a4df 143d 4848 a0bb 9579 c53c ccd5 d23c
000001b0: 0710 02bd 7d5e 1f3c f90f ecbd 0a33 35bd
000001c0: cbdf 723d 0f4f dbbc a73a d4bc 8071 2ebd
000001d0: cc95 4b3d 136f 1cbd 0d78 bb3b 2b8d 73bd
000001e0: 8cc1 c53d cd1f 4b3d 5877 17bd 09a7 a4bc
000001f0: a9b3 c63c 3eba 553c 6e84 8abc d3ec c6bb
00000200: 0587 203c b808 623c a77c 2bbd a0e0 abbc
00000210: 8e4a a83d e8e1 073c 700d 3a3d 9839 003d
00000220: 8abd 073a a285 3abd db4d d63c de5d be3b
00000230: e697 50bc fc91 66bc b546 60ba e6ca a3bb
00000240: f758 ec3c 2543 a4bb fd31 9b3d 30ee fcba
00000250: e583 04bc a58e 2b3c 398e 95bb 315b 5fbd
00000260: 57a2 b33c 5ac6 0d3c 0059 96bc f8f8 7abc
00000270: c3b8 6b3c 99be d33c 7b98 903d 1355 b33c
00000280: ba7d 20bd 8841 adbc ad3e ac3c 1f10 90bc
00000290: e6ca 88bc e3ef 783d d10c 2fbd 87e3 98bc
000002a0: 7dff 053d 62bb 483d c1bf b5bc 8f63 8d3b
000002b0: 6217 373d 9f85 223d fcfb 87bb 0f9a 003d
000002c0: d95c 633c b85a e5bc 8f94 c73d ecc6 c1bc
000002d0: d43f 82bc b160 dfbd 000b 4f3d d333 bbbd
000002e0: 7643 c23c d069 b43d ff32 89bb f17f 85bd
000002f0: 0e48 05bd fbc7 533d 020d 973c 7c05 cd3c
00000300: 2781 213d 5eae 00bd b089 93bd 4353 243c
00000310: 92e1 9dbd 3264 de3d 1a12 9bbb caed 1cbd
00000320: ccb5 bcbc 061f 9cbd 6ed1 cd3c 5450 0f3c
00000330: 2b8b 693d 24f9 16bb bb9b 09bb bb62 dfbc
00000340: 96b9 b53d 6300 403d 4a68 debb 176c 803c
00000350: 2aef 02bc b6f7 93ba 004c d83c 0e11 6cbc
00000360: 075a 963a 3f4a 9cbc 347c 013d e461 933c
00000370: 514d 5a3b e7ea 03bc ec6a 773d c7e9 8aba
00000380: f3f2 46bd 877f c9bb e054 bb3b 6b2f 4ebd
00000390: da24 3dbb 458d 69bc fdd9 d4ba edb8 57bc
000003a0: 2676 c9bc 05ae bebc e4b3 5bbd 2d28 d03c
000003b0: c521 eebc 4fa5 d2bc 327e 58bb b61e e2bc
000003c0: 393f 90bc bd20 de3a 9baf 9b3c 594f 2bbb
000003d0: 5c59 d5bc a9dd 7abc 06b2 123d 6447 3839
000003e0: 98e4 08bd cf1c 943c 9e90 5c3c cb59 1a3b
000003f0: c9a4 1ebc f3d5 323d bd76 c3bc e06d 8e3c

dense1.1.bias f4 [30]
0.0015533204 -0.005939925 -0.011742322 -0.014428717 0.00571441 0.003203326 -0.012130242 -0.0103551
-0.0069600693 0.009785317 -0.0050923894 3.259489e-05 0.0075145713 -0.0069036693 -0.017270783 -0.00052412733
-0.019382559 -0.02002546 -0.002631415 -0.024254214 -0.017638324 -0.018746348 -0.000277863 -0.010151563
-0.006544612 -0.004829967 -0.020480905 -0.0049420875 0.0007616205 -0.006521305
00000000: c998 cb3a b4a3 c2bb de62 40bc 6d66 6cbc
00000010: f23f bb3b e4ee 513b ecbd 46bc 70a8 29bc
00000020: 4b11 e4bb 9852 203c 0fde a6bb 7fb6 0838
00000030: cb3c f63b 2d38 e2bb 757b 8dbc 9765 09ba
00000040: 2cc8 9ebc 6f0c a4bc d173 2cbb c6b0 c6bc
00000050: 3f7e 90bc f191 99bc 24ae 91b9 be52 26bc
00000060: 2f74 d6bb b344 9ebb 92c7 a7bc 3cf1 a1bb
00000070: 7da7 473a acb0 d5bb

dense2.2.weight f4 [2, 30]
0.0064709694 0.22124805 -0.029353984 0.19217645 -0.028426941 -0.118267596 -0.09478655 -0.011465006
-0.068060614 0.04889877 -0.018627731 -0.096189305 -0.23082191 0.1265695 0.019667385 0.0035879868
-0.029496238 0.20505331 -0.12611549 -0.1324959 -0.08508114 -0.07040019 0.08266277 0.15332489
0.14531544 0.06259351 -0.07126378 0.0058025485 0.077517696 0.15234786 0.1729305 0.08448959
0.030589122 -0.15251262 0.13610272 0.0013123704 0.06811226 0.05197073 0.12271558 -0.051163584
-0.15893173 0.11360289 -0.08997286 -0.04602099 -0.14700736 0.17007533 0.106549464 0.025244543
-0.06903347 -0.10737929 0.12989083 -0.120858006 -0.022386 0.05123686 -0.0013109823 -0.13977651
0.0356106 -0.14331332 0.1568547 -0.06985392
00000000: 6d0a d43b d98e 623e c477 f0bc e7c9 443e
00000010: 9edf e8bc 4836 f2bd 731f c2bd b8d7 3bbc
00000020: 5d63 8bbd 144a 483d 2f99 98bc e6fe c4bd
00000030: 945c 6cbe 6f9b 013e 7f1d a13c 6e24 6b3b
00000040: 18a2 f1bc 7ff9 513e 6b24 01be 01ad 07be
00000050: 053f aebd fa2d 90bd 194b a93d 3301 1d3e
00000060: 92cd 143e 0731 803d bff2 91bd 4e23 be3b
00000070: 99c1 9e3d 1401 1c3e b114 313e e108 ad3d
00000080: 0a96 fa3c 452c 1cbe 835e 0b3e d803 ac3a
00000090: 717e 8b3d 43df 543d 4e52 fb3d e890 51bd
000000a0: 00bf 22be a2a8 e83d b143 b8bd 8180 3cbd
000000b0: 1989 16be 3a28 2e3e 9b36 da3d a5cd ce3c
000000c0: 6b61 8dbd ace9 dbbd 1a02 053e 6784 f7bd
000000d0: d862 b7bc bedd 513d 44d5 abba 9321 0fbe
000000e0: 6cdc 113d bac0 12be 859e 203e 920f 8fbd

dense2.2.bias f4 [2]
0.09570603 0.12183322
00000000: 8601 c43d b283 f93d
