checkpoint_dir/CNN_3ways_special2_cross1/ADD_50.pth (torch, 693459 bytes, 4 tensors)

dense1.1.weight f4 [30, 5760]
0.02850254 -0.0062294463 -0.04052175 0.0064930264 -0.020482866 -0.0082562 -0.04824811 -0.028617809
-0.016868914 0.015212804 -0.041847456 -0.027543195 0.043435078 -0.002077314 0.060399726 0.026935713
-0.0084205475 -0.026265206 -0.062245484 -0.032746453 -0.018494384 -0.006657182 -0.007646604 -0.021758
0.05825713 -0.017836152 0.05524265 0.040348496 0.00962545 -0.013670089 -0.046210032 0.016305314
-0.035351697 0.040597998 -0.0119255055 -0.048196107 0.03653607 0.049402572 0.014117699 -0.0353348
0.052758314 -0.034613144 -0.0031500931 0.008972541 0.038611557 -0.025861435 -0.052021835 0.025055954
-0.0012101217 -0.003680542 -0.042596884 0.016094465 0.023993202 0.083129086 -0.017365135 -0.004264091
-0.021978788 0.03823164 0.022938522 0.010629148 0.03108664 0.010737934 0.00759662 0.0056771426
0.009523948 0.05977721 0.0042676576 0.024035897 -0.02429755 0.0020059631 -0.0078015295 -0.032929484
-0.010825934 -0.026940266 -0.0052597863 0.022590576 0.029476898 -0.0018015868 -0.045781255 -0.025736462
0.036406156 0.01070797 -0.03227905 -0.009958431 -0.034865282 -0.009940688 0.037265584 0.0060191937
0.040098995 0.016905997 -0.04101273 -0.019426456 0.008725359 -0.065915525 -0.00049813953 -0.03452899
-0.03783945 0.022926118 0.003736991 0.056267034 0.061935972 -0.024574805 -0.013163702 -0.06486949
-0.034568086 0.014189295 -0.060904045 0.024656463 -0.031785306 0.007851906 -0.06604718 0.007615788
0.017110733 -0.073992945 -0.010715945 -0.0048104934 0.013885497 0.010519414 0.044235714 -0.029379109
0.063996725 -0.03560149 -0.03755762 0.054918915 -0.038490254 0.06047732 0.029302102 0.022391196
0.10276316 0.004707853 0.02489752 0.038843133 0.053125404 -0.0073089036 0.09113217 0.028452367
0.022707261 0.04502675 -0.017083647 -0.0033052156 0.040444914 0.036339607 -0.056566425 -0.016990619
-0.010039563 -0.07684749 -0.05536135 0.0043136347 0.025373893 -0.07251154 -0.009116276 -0.054332577
-0.06551981 -0.012755902 0.06525925 -0.03360418 0.022069938 0.022702029 -0.0027830661 -0.03435341
0.00711493 0.04248562 0.01213684 -0.028933361 0.001991456 0.011946999 -0.0291725 0.010416162
0.02483177 -0.038931176 -0.04089719 0.009081037 0.06880792 0.0040714117 0.011362346 0.07134108
-0.0066785095 0.02519531 -0.046042167 -0.0092339935 0.028375614 0.019353084 -0.003591138 0.011286071
0.028769013 -0.0328862 0.057322387 0.04649775 -0.05167864 0.0036331643 -0.07190623 0.02594748
0.061007857 -0.00015922588 0.02479709 0.006419824 0.016388718 -0.0032969185 -0.021263573 0.036250774
0.004955266 -0.023908494 0.03928737 -0.02719073 0.067407325 0.04331424 0.026151242 0.024604335
-0.0017629731 0.067652315 -0.06799085 0.0552732 0.010355754 -0.023759155 -0.024480421 0.012989149
0.052268185 0.122773595 0.023243554 0.005138666 0.016278984 -0.05695193 0.032969344 0.011717056
-0.020549072 0.018634167 -0.0119117685 0.015786823 -0.018010965 -0.024866477 0.042083297 -0.013004198
-0.032345176 0.016287735 0.0027672749 0.022800121 0.026179582 -0.067698 -0.022179063 -0.0052890186
-0.0037645577 0.022633627 0.0317848 -0.012507377 0.026246328 -0.021311892 0.038642652 0.0075897668
-0.008940048 0.013099997 -0.0005952496 -0.016480157 -0.061718874 -0.023841849 -0.018483134 -0.0049347295
00000000: 297e e93c 6220 ccbb 22fa 25bd 74c3 d43b
00000010: afcb a7bc 0345 07bc cf9f 45bd e56f eabc
00000020: ad30 8abc 203f 793c 3d68 2bbd 44a2 e1bc
00000030: fbe8 313d 8c23 08bb b465 773d 49a8 dc3c
00000040: 56f6 09bc 212a d7bc 1ff5 7ebd 2521 06bd
00000050: 8981 97bc 7d24 dabb 5d90 fabb d53d b2bc
00000060: 079f 6e3d 1f1d 92bc 1e46 623d 7744 253d
00000070: 10b4 1d3c 82f8 5fbc bb46 3dbd b992 853c
00000080: f1cc 10bd 164a 263d 3263 43bc 4869 45bd
00000090: d9a6 153d 5a5a 4a3d ec4d 673c 39bb 10bd
000000a0: 1a19 583d 83c6 0dbd cb71 4ebb 9101 133c
000000b0: 2727 1e3d 5cdb d3bc d914 55bd 2542 cd3c
000000c0: f29c 9eba 4035 71bb 127a 2ebd 8ad8 833c
000000d0: 648d c43c 953f aa3d 5441 8ebc cab9 8bbb
000000e0: dc0c b4bc c898 1c3d 91e9 bb3c e125 2e3c
000000f0: 69a9 fe3c 29ee 2f3c 11ed f83b 5307 ba3b
00000100: 550a 1c3c f3d8 743d b5d7 8b3b eee6 c43c
00000110: a80b c7bc 7a76 033b f9a3 ffbb 11e1 06bd
00000120: 425f 31bc d5b1 dcbc 495a acbb df0f b93c
00000130: 8979 f13c 3923 ecba 2085 3bbd 46d5 d2bc
00000140: 9f1e 153d 7b70 2f3c 0a37 04bd b028 23bc
00000150: e6ce 0ebd 44de 22bc cca3 183d a83c c53b
00000160: d83e 243d 727e 8a3c f7fc 27bd 3b24 9fbc
00000170: cff4 0e3c b8fe 86bd 9495 02ba 456e 0dbd
00000180: 8afd 1abd 8ecf bb3c 4ee8 743b 4378 663d
00000190: 93b0 7d3d 1a51 c9bc 91ac 57bc 4cda 84bd
000001a0: 4497 0dbd 377a 683c 8576 79bd 5afc c93c
000001b0: 4f31 02bd 48a5 003c be43 87bd dc8d f93b
000001c0: cf2b 8c3c 9d89 97bd ee91 2fbc 58a1 9dbb
000001d0: ff7f 633c 9f59 2c3c 8230 353d 75ac f0bc
000001e0: b710 833d ded2 11bd 05d6 19bd a8f2 603d
000001f0: f5a7 1dbd 11b7 773d f60a f03c be6d b73c
00000200: 7e75 d23d 5544 9a3b e2f5 cb3c fa19 1f3d
00000210: 069a 593d 877f efbb 81a3 ba3d f014 e93c
00000220: 9404 ba3c f86d 383d 01f3 8bbc 519c 58bb
00000230: 91a9 253d d7d8 143d 32b2 67bd e92f 8bbc
00000240: fb7c 24bc 3862 9dbd 95c2 62bd 6459 8d3b
00000250: e9dc cf3c ee80 94bd 6f5c 15bc d68b 5ebd
00000260: 402f 86bd 21fe 50bc a4a6 853d 89a4 09bd
00000270: 04cc b43c 9bf9 b93c 1a64 36bb 29b6 0cbd
00000280: 5c24 e93b 6705 2e3d 99d9 463c a805 edbc
00000290: 1683 023b 58bd 433c 2bfb eebc 8da8 2a3c
000002a0: ff6b cb3c 4c76 1fbd d083 27bd a1c8 143c
000002b0: 2beb 8c3d 7a69 853b 2229 3a3c 461b 923d
000002c0: 66d7 dabb 6566 ce3c b696 3cbd 2d4a 17bc
000002d0: fa73 e83c 5c8a 9e3c 4c59 6bbb 36e9 383c
000002e0: feac eb3c aeb3 06bd e1ca 6a3d 6d74 3e3d
000002f0: fbac 53bd 621a 6e3b 9343 93bd cf8f d43c
00000300: 60e3 793d dff5 26b9 4423 cb3c 635d d23b
00000310: a241 863c 1d11 58bb f230 aebc b17b 143d
00000320: c95f a23b bfdb c3bc cbeb 203d 18bf debc
00000330: da0c 8a3d 466a 313d 213b d63c 088f c93c
00000340: 9013 e7ba 4c8d 8a3d c93e 8bbd 2766 623d
00000350: 2eab 293c 8fa2 c2bc 2a8b c8bc 71d0 543c
00000360: 2a17 563d b970 fb3d 4469 be3c 4162 a83b
00000370: 815b 853c 6d46 69bd dd0a 073d e5f8 3f3c
00000380: 8756 a8bc aea6 983c 9429 43bc 5e53 813c
00000390: bb8b 93bc c8b4 cbbc 895f 2c3d 8f0f 55bc
000003a0: 607c 04bd db6d 853c 2b5b 353b 52c7 ba3c
000003b0: 9076 d63c 40a5 8abd deb0 b5bc 814f adbb
000003c0: ccb6 76bb 286a b93c c730 023d beeb 4cbc
000003d0: 8a02 d73c 4796 aebc c247 1e3d 94b3 f83b
000003e0: 4779 12bc 5fa1 563c 860a 1cba 6501 87bc
000003f0: eecc 7cbd fb4f c3bc f169 97bc 83b3 a1bb

dense1.1.bias f4 [30]
-0.0024559204 -0.0042417306 -0.019896824 -0.01167025 -0.001673333 -0.009151919 -0.0054799174 -0.0137334205
-0.006132074 -0.03469345 -0.02027024 -0.0037988112 -0.0118316375 0.004817077 0.012839753 -0.020404384
-0.006978133 -0.027506398 -0.013215342 -0.01181283 0.007369621 -0.034035448 -0.0262931 -0.0050684586
-0.02293415 -0.00877572 -0.022123374 -0.017818976 -0.020652944 -0.013859683
00000000: 82f3 20bb 37fe 8abb aafe a2bc 9434 3fbc
00000010: bd53 dbba eef1 15bc e190 b3bb 2402 61bc
00000020: 91ef c8bb b81a 0ebd c60d a6bc 7af5 78bb
00000030: 7cd9 41bc 92d8 9d3b d45d 523c 1827 a7bc
00000040: d3a8 e4bb 1955 e1bc 2985 58bc 9a8a 41bc
00000050: dd7c f13b c168 0bbd a164 d7bc 5015 a6bb
00000060: 66e0 bbbc 0ac8 0fbc 143c b5bc 1af9 91bc
00000070: 5d30 a9bc b913 63bc

dense2.2.weight f4 [2, 30]
-0.09849824 0.05532601 -0.12434375 0.03558293 0.10694153 -0.055202097 -0.017600207 -0.014612431
-0.09025129 -0.18257065 -0.14535245 0.037329078 0.10146016 0.08505617 0.0015290724 0.031652752
0.2150733 0.14403586 0.064042985 0.017261095 0.08452993 -0.06665276 0.10828745 0.09023685
-0.109234266 0.048219547 -0.09191896 0.13973823 0.009392369 0.1078105 0.0092888195 -0.16155043
0.03917594 -0.068466 -0.13894615 0.114682704 -0.13114946 -0.055485304 0.07203678 0.037155706
0.011139339 -0.09304493 0.016848281 -0.056941886 0.1607991 0.05118437 -0.027791562 -0.120539814
0.16968453 -0.21821614 -0.07064115 0.027704578 0.19425957 -0.051858567 -0.0640909 -0.095182635
0.08702881 -0.023949308 0.034651 -0.11056084
00000000: 72b9 c9bd 879d 623d f0a7 febd 68bf 113d
00000010: 2904 db3d 981b 62bd 4f2e 90bc fa68 6fbc
00000020: abd5 b8bd cdf3 3abe 46d7 14be 60e6 183d
00000030: 58ca cf3d ee31 ae3d 286b c83a 51a6 013d
00000040: 2d3c 5c3e 237e 133e f828 833d 2467 8d3c
00000050: 071e ad3d 3e81 88bd d0c5 dd3d 19ce b83d
00000060: 37b6 dfbd dc81 453d 0240 bcbd 8a17 0f3e
00000070: 73e2 193c c0cb dc3d 2230 183c 7a6d 25be
00000080: f376 203d e737 8cbd e647 0ebe c4de ea3d
00000090: 0b4c 06be 8f44 63bd 0588 933d 9530 183d
000000a0: c681 363c 578e bebd 6805 8a3c e53b 69bd
000000b0: 85a8 243e b4a6 513d 21ab e3bc 94dd f6bd
000000c0: c8c1 2d3e 0d74 5fbe 4fac 90bd b6f4 e23c
000000d0: fbeb 463e a669 54bd 1742 83bd 1def c2bd
000000e0: 293c b23d 5731 c4bc 35ee 0d3d b96d e2bd

dense2.2.bias f4 [2]
-0.17067972 0.18860897
00000000: aac6 2ebe b622 413e
